recordvalue.pth (torch, 559792 bytes, 6 tensors)

network.0.weight f8 [256, 13]
0.21453041540749507 -0.0710325460825526 0.19111187236811497 0.11795138426341423 0.06878366397428119 0.23972203196593397 -0.2458476972104224 0.07297802210454991
0.020222424165078332 -0.2836871012380552 -0.11433815128374274 0.19814385930026662 0.1438351934290684 -0.2218268393190668 -0.033924241871591175 0.3643721482558936
0.31327183182602175 -0.05067192847537726 0.2619752070645669 -0.184685762270076 -0.06798011966755971 0.10963921090924426 -0.16653330170431985 -0.2529686844760871
0.2252652273874361 -0.25336092851108266 0.08331814964018905 -0.20070266000044135 0.37230125460535646 0.31104881800990275 0.1265128789158306 -0.009875782951134936
0.14357185097260983 0.0369614867753184 0.1417445216960935 0.27278481586867814 0.0804634190982613 0.09747221094438654 0.10202695661972506 -0.08165528180260886
-0.06381200999323611 0.06813925066299657 -0.20378512469564067 0.32857965455785004 -0.1438141007154011 -0.20399929171215178 -0.04446967285320554 -0.06701193967297665
-0.3453017457759888 0.16096635666065812 0.25469989158438555 -0.18588518431545686 -0.23314983904284697 -0.10869387684715395 -0.03728364302567088 0.26070253225027956
-0.060023495234590316 0.22066535019715752 0.04597241425325174 -8.25643257671838e-05 0.13273001487165542 0.40567332923629806 -0.09191633645694579 -0.19115894698932392
-0.015652796212669816 -0.11939735964409899 -0.2787694944617535 0.2882400057974714 -0.11045360723470515 0.26608143715975363 0.07755003520869197 0.07666883320645099
-0.2403443328797599 0.18132743683960126 0.08000465187967357 -0.391254402803555 0.030372258830505015 -0.24396314725009205 0.2238933709930321 0.07339154102411374
0.13164278997123102 -0.10956831624358937 0.08980713860532993 0.22225133977129857 0.008464719167957633 -0.06373680547903514 -0.15691765712512096 -0.08666288091003942
-0.2697945298336738 0.06471386971996668 -0.13433712810970772 0.12869815098580037 0.03467293875847446 0.3118917913908764 0.12789704186412518 -0.06418715572121504
0.0816901944138238 -0.15106642825329847 -0.18924657589120075 -0.29997658920506703 -0.3351140959171563 0.0827867163134911 -0.16661265342630924 -0.19579700612148634
0.0530806573970331 -0.225340888374944 0.38785791473518727 0.08395843619911912 0.14357389148151106 0.2643310220828717 -0.17854539813087064 0.13028843188831482
-0.032785218138499085 0.1346118792255046 0.37400292420124104 -0.1603447632387058 -0.03844133660082149 0.2659555841919336 -0.16167583051124854 -0.057427842798759454
-0.11141448759722712 -0.22448289490976486 -0.0040768982391519 0.1649262641124054 0.14307141606018864 0.09926602216366495 -0.020623775506724257 -0.010268537233849082
-0.3534156214504604 -0.37546822254407064 -0.20270664099442567 -0.25136441398188863 -0.08513597070774381 0.12054318306686593 -0.03811795774123094 -0.02093441417620429
-0.13179305844832545 0.18639794417447778 0.11508621889423055 -0.15513944018519135 0.38610195065592123 -0.07545751500139002 -0.02544808268881421 0.20291844577896145
-0.2615296087574777 0.051376608392452096 0.13807719117364167 0.10557489974661945 -0.10388362289845376 -0.13055943769575692 -0.14148355309837132 0.021755184600681335
0.04493310349721561 -0.25290864904617155 -0.18547359071951577 0.01127325097250179 -0.11771870948548896 -0.2909226950305768 -0.03369011450311073 -0.17043612562681393
-0.28221404113199344 0.28381725034166727 -0.14788613779350906 -0.16558364109820942 -0.1356080345008832 -0.20741479922116937 0.2092259118834699 0.08112975262101506
0.10117505751210354 -0.028505793075936665 0.033216429224349024 0.4228643680814727 0.16473535672703585 -0.18611586833225655 -0.03542348863555674 0.03271678063030818
-0.008460171264592814 -0.17215009022628266 0.2026580109950607 -0.21187573891890135 -0.2288654182924216 -0.4164330918390289 0.021091253084974178 -0.23061480646020702
0.12343244774898554 0.17459299970077827 -0.3899394667508243 -0.008534005117185888 -0.22742542764864454 0.05329105861267476 0.1079420328470589 0.15834253688052305
0.12510451620148608 0.1588819186685263 -0.2927123467317327 0.12475057777337112 -0.11904574582060151 -0.03882834449317053 0.3526526559980061 -0.0036303978400289557
0.06155419878525169 0.14759502852016543 -0.014580743890101631 -0.24376593257519202 0.36496872095467986 -0.2764615259094062 0.2089619715332919 -0.3852470535333205
0.19635350683013153 -0.27269489807050185 0.21183900436360345 0.2884422504775229 0.15089121063139405 -0.20104314685654226 0.1387902331505542 -0.19604964010776996
-0.11146191100411543 0.09893616066760359 -0.18425992209642275 0.2627992878316809 -0.3563022406612046 0.22769853379257507 -0.21651714007073503 -0.11227900322921834
-0.12530759787656343 0.1689865329914356 -0.2800478461468981 0.05343442011753123 0.27632436076066863 -0.193412817734384 0.056431819336827484 -0.13762376748728467
-0.3492025997865251 0.22826299915504003 0.28155538311778877 -0.3242033887309182 0.13461251280918096 0.3459283897764731 -0.21571739707799778 0.22564836425055765
0.08935715943709126 0.025599837315341153 -0.020154690514598846 0.25954761197309045 -0.043640477687081264 0.09259368363248506 -0.0061201497979970305 0.21226646167144433
-0.2031054459759697 0.24684890208093846 0.36310586624837815 0.15296440171738668 0.06081148770569362 0.16695712712150815 0.07910991864981513 0.19107213720735772
00000000: 0414 168f bb75 cb3f 184d 605e 302f b2bf
00000010: 8364 d994 5a76 c83f 28e6 edd9 0f32 be3f
00000020: 63c2 4463 ce9b b13f 3351 b627 36af ce3f
00000030: 0768 a8f5 ef77 cfbf ed0b 440a b0ae b23f
00000040: b949 bde9 2fb5 943f c653 87f1 ed27 d2bf
00000050: f3e2 72dc 4345 bdbf 0687 cc29 c75c c93f
00000060: dd55 e50d 3169 c23f 610e 2066 d264 ccbf
00000070: 9399 c2aa 845e a1bf d644 158f df51 d73f
00000080: 81d9 1c4c a50c d43f af05 41c7 abf1 a9bf
00000090: 1021 ada8 33c4 d03f b24f 7e76 c8a3 c7bf
000000a0: fa15 c026 2567 b1bf 3be6 36b9 5011 bc3f
000000b0: 0aea 4196 f650 c5bf fa29 af90 a330 d0bf
000000c0: 9a0b 47b0 7dd5 cc3f cb83 82c1 1037 d0bf
000000d0: 2a2b de97 5654 b53f 7807 76f0 9fb0 c9bf
000000e0: ae8b 32a4 c8d3 d73f 9df7 334d 39e8 d33f
000000f0: bbaf bbf2 9231 c03f 9951 6126 c139 84bf
00000100: 90da 46fa 8f60 c23f efb3 d2b1 9dec a23f
00000110: 7f33 893a af24 c23f 3116 c071 4e75 d13f
00000120: da26 8d29 4099 b43f 5a63 4656 f0f3 b83f
00000130: 39fc fd49 701e ba3f 624b e34c 5ce7 b4bf
00000140: 4852 03e0 fb55 b0bf 83e8 2bed 9271 b13f
00000150: cb51 fd86 a115 cabf 8f3e 9df5 7207 d53f
00000160: bb5d a31d 8068 c2bf 1fca 2717 a61c cabf
00000170: 0bfd 229d bac4 a6bf fd42 56c9 b127 b1bf
00000180: 5403 577e 6c19 d6bf f290 ceaa 8b9a c43f
00000190: 6294 29c6 004d d03f 9c10 b9f1 15cb c7bf
000001a0: 46db e09a dad7 cdbf 927f 55a6 5cd3 bbbf
000001b0: 3f26 f176 d716 a3bf 1ff5 7fac 59af d03f
000001c0: f660 0c4a 66bb aebf d584 3a1f c33e cc3f
000001d0: 54c5 783f b289 a73f dacb e150 cca4 15bf
000001e0: 1e22 8910 4cfd c03f 527a 7b44 8df6 d93f
000001f0: a3fb 0c3b d487 b7bf bd16 d478 e577 c8bf
00000200: 8627 4c5f 4907 90bf 9570 e64a d390 bebf
00000210: da7b 7501 5cd7 d1bf a722 9335 8672 d23f
00000220: 945c cc06 b046 bcbf e21f ab6f 7a07 d13f
00000230: 2065 06b1 51da b33f f682 3e93 91a0 b33f
00000240: 49ae bf64 9ac3 cebf dbfa 8bc9 bc35 c73f
00000250: 42df 5953 2f7b b43f 1144 1de8 4f0a d9bf
00000260: a9d9 87c9 e719 9f3f 0027 6f35 2f3a cfbf
00000270: fd66 1ab9 89a8 cc3f 9269 80bc c9c9 b23f
00000280: 041f d7c2 abd9 c03f 1caa f14e ab0c bcbf
00000290: e6d9 41c3 99fd b63f 2eab e75d bb72 cc3f
000002a0: f238 f85f f355 813f 077f 1527 0e51 b0bf
000002b0: 1038 c2b6 e015 c4bf b327 49df 892f b6bf
000002c0: ee9e 9146 5044 d1bf 0c7c 0b92 1691 b03f
000002d0: 3254 ef81 f531 c1bf 5314 c556 2e79 c03f
000002e0: 3337 0cc4 a6c0 a13f ee89 fafc 08f6 d33f
000002f0: 37e1 0726 ee5e c03f 4158 a5c6 916e b0bf
00000300: 0448 6909 a6e9 b43f 968b 6f0c 2556 c3bf
00000310: 9095 2a57 3b39 c8bf 91e3 0c02 d132 d3bf
00000320: 8723 9964 8272 d5bf 9813 1c9f 8231 b53f
00000330: 7f6b c83c 9053 c5bf c526 f954 e00f c9bf
00000340: 6710 244f 632d ab3f f3cf 0261 f8d7 ccbf
00000350: 9c12 d200 aad2 d83f 27d2 b2d1 4c7e b53f
00000360: 4a7c 3c18 a160 c23f 0d82 caa9 ccea d03f
00000370: cf64 e95a 93da c6bf a7f3 0095 4aad c03f
00000380: 9de7 645f 39c9 a0bf 469c 7649 f63a c13f
00000390: 645f 03f6 a9ef d73f 2ff9 185d 2d86 c4bf
000003a0: 6fb5 0737 95ae a3bf 5bbf 1292 6a05 d13f
000003b0: d3ba 4c2a cbb1 c4bf 10a8 66a5 2e67 adbf
000003c0: 2ddb 87ec a885 bcbf 5a0d 1302 dbbb ccbf
000003d0: ee4f b309 f0b2 70bf 689f 4ec7 4d1c c53f
000003e0: 1647 7c06 2a50 c23f 0e05 cc7e 7f69 b93f
000003f0: 0824 4925 661e 95bf 65f1 c6bc ab07 85bf
00000400: 979d 018e 5c9e d6bf ece5 20de ab07 d8bf
00000410: a364 e08c 4af2 c9bf f38b 5bc4 5a16 d0bf
00000420: 4829 e791 78cb b5bf 6e26 0705 ebdb be3f
00000430: 7f1d c76b 3284 a3bf 51a9 fdc0 d46f 95bf
00000440: 440c f04d 98de c0bf a5b0 2249 e3db c73f
00000450: 01fb 5e5a 4a76 bd3f 7923 f5f2 9bdb c3bf
00000460: 924b bff4 e4b5 d83f 3b1c 2b07 2f51 b3bf
00000470: 50d3 93eb 0f0f 9abf d819 304c 3bf9 c93f
00000480: 8123 23af e6bc d0bf e563 a6e9 084e aa3f
00000490: cb08 356e 83ac c13f 8db1 b0e5 f406 bb3f
000004a0: d858 f0fa 1d98 babf c330 8bf1 2bb6 c0bf
000004b0: 775c bd10 221c c2bf 3473 83b9 fd46 963f
000004c0: 8580 0ec4 7801 a73f a7d8 21c2 a72f d0bf
000004d0: b9bc 343f 99bd c7bf 92d2 f821 6e16 873f
000004e0: 7c14 5e37 d022 bebf 3883 3439 7a9e d2bf
000004f0: da8c faa7 d43f a1bf f2e2 cfd8 d9d0 c5bf
00000500: fe91 487b cb0f d2bf ce84 10d4 0f2a d23f
00000510: 6a6c add6 eeed c2bf 0f7c a241 d831 c5bf
00000520: f8c8 a0a4 9a5b c1bf 0540 ae71 918c cabf
00000530: baf4 8128 eac7 ca3f 7f65 3d62 ebc4 b43f
00000540: a076 2fcb 9be6 b93f 35e0 0764 9f30 9dbf
00000550: 97bd 6a6a be01 a13f b36e e3b5 3510 db3f
00000560: 039a d154 0c16 c53f b778 e00f a5d2 c7bf
00000570: 0b5f 660a 0723 a2bf 46d7 acfd 40c0 a03f
00000580: 632b 33f7 9053 81bf 1f3e c39f 0309 c6bf
00000590: 4a83 bf9c b2f0 c93f 657b bc84 be1e cbbf
000005a0: f52a 6047 764b cdbf 48ee 9afb d6a6 dabf
000005b0: a22e ed08 f298 953f 9b27 dc35 c984 cdbf
000005c0: f8dc 58d6 4499 bf3f 11a6 e93b 1059 c63f
000005d0: 7953 47aa c4f4 d8bf 23c4 0ec7 467a 81bf
000005e0: 9ace 03c3 461c cdbf aa41 d233 f748 ab3f
000005f0: c51e f1cc 16a2 bb3f b5d7 bb78 9144 c43f
00000600: 9769 d5be 6c03 c03f e4b3 4d22 3e56 c43f
00000610: fb48 1691 ccbb d2bf 8498 b163 a7ef bf3f
00000620: 7c04 0731 c879 bebf 0211 830b 4fe1 a3bf
00000630: 70f9 1672 dc91 d63f 1e12 d2ff 7ebd 6dbf
00000640: 9ea3 6d2d 0884 af3f 16ed 45d6 64e4 c23f
00000650: 2c53 4651 82dc 8dbf c20a 25da b833 cfbf
00000660: 1b0d 24c4 a55b d73f a285 18af 8bb1 d1bf
00000670: 0ded eb10 44bf ca3f 0f95 f341 e3a7 d8bf
00000680: 7429 2599 1c22 c93f 4eed 3f4d d573 d1bf
00000690: eb22 e15d 8a1d cb3f 7e7a 257c d675 d23f
000006a0: 2a35 7537 6750 c33f 1db9 6a26 c8bb c9bf
000006b0: 6163 31dc e0c3 c13f 85e5 5394 2718 c9bf
000006c0: 9a28 838e c488 bcbf 718b 7556 e153 b93f
000006d0: f10e af41 d495 c7bf d78b a91a b4d1 d03f
000006e0: c768 c8e9 a7cd d6bf cb3d febd 3925 cd3f
000006f0: fe49 d069 d5b6 cbbf e79f e516 51be bcbf
00000700: f8fa 6851 140a c0bf 6bd1 54c8 59a1 c53f
00000710: e108 21cd 4dec d1bf 0663 c59d c15b ab3f
00000720: 0788 235f 4caf d13f 0cf0 654f c0c1 c8bf
00000730: edca 02a5 a1e4 ac3f 184e 41d6 a79d c1bf
00000740: 2cb9 70dc 5559 d6bf b1fe 20d2 b837 cd3f
00000750: db3b a0de 0005 d23f bd81 f691 bfbf d4bf
00000760: 8ceb 129a fb3a c13f e043 36d4 b023 d63f
00000770: 616a d0ae a09c cbbf ab0f 6dac 0be2 cc3f
00000780: a31d 725d 1ce0 b63f ef90 3500 d836 9a3f
00000790: c21c 7c62 6ea3 94bf 017a 4b96 6d9c d03f
000007a0: 344a e570 0b58 a6bf 9587 043b 38b4 b73f
000007b0: 0b0f aa33 7111 79bf 934f 7523 8c2b cb3f
000007c0: bc9a 0df8 5bff c9bf 94dd beac be98 cf3f
000007d0: 3471 2163 203d d73f 6c08 6a67 5694 c33f
000007e0: e988 d5ed ae22 af3f 4516 69e4 d95e c53f
000007f0: 9be2 6331 8c40 b43f 24c0 3d42 0d75 c83f

network.0.bias f8 [256]
0.25800038135343384 0.3350585425980261 0.15888747500819156 -0.19132372738688463 0.1180996967787953 -0.04147316195331983 0.17914009066763245 0.20117061139610257
0.11873964059369477 0.1343884300127179 0.33733011768940885 0.39902541814844655 0.20269344717433577 0.30480101842747764 -0.09164351199535921 0.18915391943063914
-0.08928553948262663 0.4062527805221531 0.10603311390504995 -0.036174454402919554 -0.07906737124871738 -0.032422649924789125 0.30174339875698686 -0.07519257444829587
-0.021357393123229308 0.08625473215365725 -0.1109555919452208 0.06987126469901528 0.06715214585869397 0.0992735779610745 0.2579297229203715 -0.06345603834475236
-0.06476008945632684 0.06123723744973636 -0.09509635856176163 -0.050388305715974746 0.2833042817969101 0.08218762833229501 0.1564532968209243 -0.018622320089261814
0.059994930827877574 -0.1279161014933381 -0.038190489932551655 -0.07315714769551832 -0.11437041027612922 0.38289743483263095 -0.1496759321205397 -0.014619916639446073
0.31413469109989756 0.290067392484193 0.2815647789340407 -0.08849912496726549 0.25028021426622665 0.374022624348602 0.24572019131194697 -0.0007636878322817764
0.1904024417873368 0.34879763509013917 -0.12032738613431346 -0.0722440348564195 0.17832208124794266 0.3282000252081653 0.3759834839443311 0.20376729292232015
-0.1262609720622267 -0.029120504939090616 0.26321911474540816 0.32658913692268077 0.20755353175239383 0.3786381296784635 0.18885009546687367 -0.10384238174171306
0.1598490989276437 0.1317766481643413 0.32517199586431456 0.19518549296567955 0.19639176942142325 0.07954605175769952 0.36623073874953616 -0.090930605782758
-0.12661465383961884 0.07081202415297215 0.17333643837777682 0.3899232932501406 0.2692099950972246 0.16413981378350329 0.392792980556877 0.2517676692946869
0.16790902558479612 0.11985686467152576 0.20818289013090915 0.05490781109422364 0.12722847150952207 -0.020398858558795255 0.29582001159797605 -0.06175649847689951
-0.12498171888815013 0.13884032061789522 0.41918577540924923 -0.042929333766077285 -0.02017488915031181 0.3126463254364315 0.17081686875748034 0.35526778835781103
-0.04073868526050951 0.14018322465730546 0.14027902084634114 0.0006172036092645247 0.13883112347400217 0.16360679158462463 0.07086620875769889 -0.2072165068361966
0.19276763429302507 0.34714690877493953 0.2759648341627025 0.1538362452604441 0.4066368476407763 -0.04699277075345341 0.19750922387283873 -0.13603782347586593
0.19253283547001745 0.12587558076888467 -0.14170502614042843 -0.11698828400576423 0.008279216035655847 0.11460760220108232 -0.13597896519782146 0.13510207329364154
0.11683714925422481 0.25318499642995185 0.23755448458846115 -0.10201380990005174 -0.05697846601503579 0.27896572024290034 0.14156231472948674 0.12753420924798164
0.3535380062479706 -0.0523877518747262 -0.1372498591307428 0.03363827484493256 0.29864836778035336 -0.03153131389209779 -0.07193643346730919 0.2489376616801365
0.08448123812899616 0.3480888734810568 -0.11929453754057866 0.2638097334545626 -0.17942602265036603 -0.003942094670896199 0.2395953835344585 0.3614947237146636
0.35519294229353326 0.3432464308718463 0.05260350500414694 -0.11446938651748736 -0.05809692589059342 0.010884915389050303 -0.06188562729849242 0.37145382047971565
0.2021554508980241 -0.20239321475565605 0.02307899745341984 0.04336676996574657 0.305434019070863 0.38133435895050466 0.004208002227548888 0.26196833395518304
0.1579501698323241 0.01993704378401661 0.28168192394035596 0.09256438254356725 0.11755190566515414 0.08114480190973195 0.3025770884106863 0.24353246031073064
-0.0713442590302239 0.37230733578975006 -0.1074267134544059 0.06656813068966257 0.18206348191865074 0.11002566039347761 -0.04616786401474407 -0.06704816286212964
0.25801460294743334 0.1429650017729139 -0.1325170888037978 -0.02863292433891 0.3612316130836638 0.22018726346454853 0.23370135292934718 0.25505676406171396
0.13496911706504747 -0.14698279080443669 0.12320936506504496 0.03186181790212317 0.165482702047396 0.00178607122189117 0.21383120937794142 -0.07211463286976716
0.11200694932806396 0.2187902681305119 0.3298958353225954 0.05227320077471162 0.16343861525769957 0.25919617173818243 0.19297386947635128 0.26986625626366456
0.1321015527057234 0.3718576404645215 0.17166257773516405 0.05472203222012855 0.3460087516842432 0.0595419608581983 0.3731377864163352 0.3206322128123256
0.22118488718666818 0.19791465234361333 0.08786040546628285 0.16706457424219207 0.07366603225945122 0.2467840666686415 -0.02171565316749113 0.2606783798329519
0.4087379128489906 0.2564000815241752 0.4269009648674814 -0.0509620792495244 0.07129585347491278 0.3092952901891358 -0.17264211655312592 0.21423725556265602
0.13103956661621316 0.2821465798737614 0.40841928200390254 0.3834270295615979 0.05591139522539422 0.2939424131982387 -0.18377702857141134 0.27638752030252545
-0.12998907753834604 0.18945479886656458 -0.1283756374690124 0.30394416822854686 0.3994730774006671 0.21313519792973962 0.37186361416117397 0.42323644044551856
0.043082226722288376 0.23413773374141272 0.011048642560840927 -0.08837221648117426 0.14877972989571603 0.006539727244118446 0.1943922316833846 -0.16380048231776953
00000000: 8a2f 1108 1483 d03f 6f0d ad62 9971 d53f
00000010: d4bc 73be 6c56 c43f a0a9 09c0 4b7d c8bf
00000020: f11a 551f c83b be3f ed9f 8064 f83b a5bf
00000030: 53f4 68ff 0fee c63f 3369 6e66 f5bf c93f
00000040: e6b5 1699 b865 be3f b3c5 eedb a333 c13f
00000050: 4da3 db0f d196 d53f 7119 4ee8 a189 d93f
00000060: 5f17 5ddf dbf1 c93f a0be 7b21 dc81 d33f
00000070: 7520 e9fe f275 b7bf 3ab2 ee14 3236 c83f
00000080: b066 15c8 6adb b6bf 121c 90a9 0b00 da3f
00000090: 45e6 8374 fc24 bb3f f0ec 3845 7585 a2bf
000000a0: 84a5 b15d c23d b4bf 8b3b 279a b399 a0bf
000000b0: 447d 5c8b c34f d33f 5950 2810 d23f b3bf
000000c0: 2de5 f763 b6de 95bf 8ca6 b945 ca14 b63f
000000d0: 138a b6ee 9567 bcbf 68fb cf4c 15e3 b13f
000000e0: 76be 510e e230 b13f f020 b342 fe69 b93f
000000f0: 61ff 26ab eb81 d03f aaa7 6ca9 a73e b0bf
00000100: 990b 4d02 1e94 b0bf e8ba 49b8 7c5a af3f
00000110: 0cd0 fd25 3c58 b8bf d04a 4dfa 7ecc a9bf
00000120: 999b 4848 a821 d23f cab0 d297 3f0a b53f
00000130: 823f 9960 a906 c43f 673d 09bf ba11 93bf
00000140: 84bc a9d3 a7b7 ae3f a0d9 4508 8e5f c0bf
00000150: 0a9b 8e32 b48d a3bf 0a26 d244 6dba b2bf
00000160: a51d c413 6147 bdbf 2e05 153e 6481 d83f
00000170: 525f bab8 9428 c3bf 867e b1fe 0bf1 8dbf
00000180: 320a 3464 c81a d43f 3cc2 16d3 7690 d23f
00000190: 078a 4e47 2805 d23f 7d82 75ef e0a7 b6bf
000001a0: 09ff c64d 9704 d03f 4ca5 e296 fcef d73f
000001b0: 1b6a d35c c273 cf3f b8dc ca21 4706 49bf
000001c0: 550f 4772 1b5f c83f 3498 e850 b352 d63f
000001d0: fe91 428c c6cd bebf 8016 0ac7 957e b2bf
000001e0: 2faa 8e09 42d3 c63f 4330 b4ad 3a01 d53f
000001f0: 7a21 d807 1d10 d83f be43 8cf1 0b15 ca3f
00000200: 065c e2cc 5129 c0bf 4cf4 6c01 c4d1 9dbf
00000210: d0de 60fc 94d8 d03f 34f4 931f d6e6 d43f
00000220: badd 8537 1d91 ca3f f734 ff6b 9b3b d83f
00000230: b737 f06b 3d2c c83f bcf7 8411 6a95 babf
00000240: ee3a 186e ef75 c43f 2305 1fa5 0ede c03f
00000250: 5efc f333 9ecf d43f 487a 7896 d6fb c83f
00000260: d12d 6f91 5d23 c93f 1c43 d34a 215d b43f
00000270: 0207 6e0d 5370 d73f a6db 0a6a 3a47 b7bf
00000280: 3ebf b7b2 e834 c0bf 3f8c e69f bc20 b23f
00000290: 65d2 046f e32f c63f 674f 1dd4 80f4 d83f
000002a0: c7ba 2c8f bc3a d13f 80f9 158e 8802 c53f
000002b0: 07c5 652b 8523 d93f 89e4 7324 f61c d03f
000002c0: b782 cbfe 0a7e c53f f61d f781 f0ae be3f
000002d0: 5b79 59a8 bca5 ca3f 65a7 e369 e01c ac3f
000002e0: 8b71 20c6 0549 c03f 7103 8b39 70e3 94bf
000002f0: 9333 d40e b7ee d23f e829 8c3a 8c9e afbf
00000300: d0f3 384b cdfe bfbf 09c3 3506 85c5 c13f
00000310: 2d31 1593 f0d3 da3f 2af5 2069 d5fa a5bf
00000320: 5570 67e4 b9a8 94bf efb2 bdbb 6502 d43f
00000330: 7b91 75c0 53dd c53f 486b 141b b5bc d63f
00000340: 5279 c071 b3db a4bf dbeb ac1e 86f1 c13f
00000350: c0ca 6cb7 a9f4 c13f 82bb 8ba8 7a39 443f
00000360: 7c6f 7edf 37c5 c13f af35 a13d 11f1 c43f
00000370: c87d 01b1 4924 b23f f7c2 060c 1286 cabf
00000380: be06 821e 9cac c83f 9522 06ab a737 d63f
00000390: afca 6468 68a9 d13f 22a1 2af5 e7b0 c33f
000003a0: 85cd 7d8e 5606 da3f fdaa 11bb 6f0f a8bf
000003b0: 8399 9874 fb47 c93f d986 6cf9 af69 c1bf
000003c0: ddfb df7b eaa4 c83f 0e39 62e7 b01c c03f
000003d0: ffd9 79ea 6323 c2bf 19e6 d1b5 f1f2 bdbf
000003e0: c195 e090 b1f4 803f c69d 537f ec56 bd3f
000003f0: f3f9 3b3c c267 c1bf 8c80 3555 064b c13f
00000400: 5e38 0117 0ae9 bd3f 0e4a e0d7 2e34 d03f
00000410: 7fac 2973 2f68 ce3f 5ad6 42b9 931d babf
00000420: 35be 3810 482c adbf 707e 4909 93da d13f
00000430: 6bfa 0dc4 b61e c23f c8af eb7c 0a53 c03f
00000440: d298 aedf 5da0 d63f 5d9c 0642 91d2 aabf
00000450: 536f 2c44 6791 c1bf 13a8 b434 0939 a13f
00000460: 99b4 270b 0e1d d33f 38d5 ee53 df24 a0bf
00000470: 820a 2215 6d6a b2bf cb56 d475 30dd cf3f
00000480: 94be e3fa 8fa0 b53f bdf7 ec8d 1647 d63f
00000490: db06 5439 168a bebf d871 6338 42e2 d03f
000004a0: b5d6 aa91 6ef7 c6bf 571b 07fb 9525 70bf
000004b0: 33cb 46c0 0fab ce3f 7efc 01c4 ba22 d73f
000004c0: 6aed ba2d 7bbb d63f 2f0d c4e0 bff7 d53f
000004d0: 46aa 4bbb d8ee aa3f d65c 7c9f dd4d bdbf
000004e0: fb7e 6559 e1be adbf 29f3 ec9c d44a 863f
000004f0: fbce ad12 79af afbf 0ad1 bb3e e6c5 d73f
00000500: c056 28d5 3ae0 c93f 8b67 2757 05e8 c9bf
00000510: 8eca 254d 05a2 973f c9d9 7855 2b34 a63f
00000520: 4eb1 bf20 3b8c d33f 8f25 223a c867 d83f
00000530: 645b 2eff 683c 713f 2035 bbd4 16c4 d03f
00000540: cbea e90e b637 c43f 9e05 205c 606a 943f
00000550: 1eaf cc9e 1307 d23f d88e cca3 4cb2 b73f
00000560: 7e10 6ab6 e117 be3f 9854 71de e7c5 b43f
00000570: 028a cf4a 6c5d d33f d545 4658 122c cf3f
00000580: 48cb 4a0b 9e43 b2bf 92c8 d125 e2d3 d73f
00000590: 37e1 002d 5180 bbbf ad98 44e8 9b0a b13f
000005a0: 9478 512e db4d c73f a85c 1c45 a42a bc3f
000005b0: a495 2374 50a3 a7bf 36ee bf82 112a b1bf
000005c0: 7d2d 63ae 4f83 d03f eb2a 8b5b ad4c c23f
000005d0: 7666 49e9 51f6 c0bf ac72 7f06 f351 9dbf
000005e0: 3e71 1e33 6b1e d73f 70b9 c9a3 182f cc3f
000005f0: 6666 ee09 ede9 cd3f 8e31 119b d952 d03f
00000600: 05d7 e103 ab46 c13f 0539 ca03 55d0 c2bf
00000610: 3eea 8321 a68a bf3f 90ee c233 3150 a03f
00000620: 9c73 ac84 892e c53f f558 205f 5343 5d3f
00000630: bc39 9231 d25e cb3f 381b bdc5 1a76 b2bf
00000640: 6eec 49c8 7cac bc3f 02dd 26cb 5101 cc3f
00000650: 7d04 f36b 031d d53f ccba 918f 8dc3 aa3f
00000660: 6db9 b779 8eeb c43f 064a 378a ab96 d03f
00000670: 9316 3125 5eb3 c83f ba91 3c1e 7d45 d13f
00000680: 7f9a 4f24 b4e8 c03f ac05 24fd 83cc d73f
00000690: 3de8 a812 0af9 c53f e720 83b5 8604 ac3f
000006a0: 6145 27e4 0125 d63f 5158 40ad 487c ae3f
000006b0: ecd6 634f 7de1 d73f ddac 04f9 3c85 d43f
000006c0: 4008 6b50 c94f cc3f 1286 9b6f 4455 c93f
000006d0: c24a 1700 057e b63f 565e 5839 5f62 c53f
000006e0: 7763 61ef c6db b23f 6c02 c2cb 9e96 cf3f
000006f0: ffa0 a9d0 a03c 96bf eb08 0a5f f4ae d03f
00000700: f196 1410 c328 da3f e1a2 35e3 db68 d03f
00000710: ba25 af6c 5852 db3f f9fc 6c9f b317 aabf
00000720: 6be1 03ef 7140 b23f a6d3 0a79 7ecb d33f
00000730: bd02 410a 2319 c6bf bbfa 1c5b 206c cb3f
00000740: 87a0 8c8e e7c5 c03f 8f1b 4f87 b00e d23f
00000750: d4cd d0a0 8a23 da3f b2a5 1786 118a d83f
00000760: 3e00 ef1b 6ba0 ac3f 1100 e6d6 f3cf d23f
00000770: c931 bc73 0186 c7bf 5433 2e48 55b0 d13f
00000780: cea4 6e6a 7ba3 c0bf 24e0 990a 0e40 c83f
00000790: f12a 44e6 9c6e c0bf 7c7f 963d d273 d33f
000007a0: b75f c486 f790 d93f 420b 5ea0 0348 cb3f
000007b0: 3441 590b 9dcc d73f d217 8c4b 4e16 db3f
000007c0: a546 9fa5 df0e a63f f6e6 96aa 39f8 cd3f
000007d0: 8048 b6b3 aba0 863f 9363 a9c3 8f9f b6bf
000007e0: 2edb 1ad5 360b c33f 8444 36aa 66c9 7a3f
000007f0: 909a d63a d8e1 c83f 33da 4f09 6af7 c4bf

network.2.weight f8 [256, 256]
0.010002193037889233 -0.007249828567425241 0.03860648042000037 -0.0266285924561007 -0.02745335885740025 -0.02944932559299865 0.04564111040797756 -0.04352800065238694
0.03767485110512413 0.0027262469679164973 0.054716720066762765 -0.005310420444885022 -0.006839867848496427 -0.027961134261283663 -0.06100883752753834 -0.04040076635558649
-0.05312479834209965 0.006974577138959877 0.017270481093291736 -0.057373069991092485 -0.01935109082181066 0.003261775090412003 -0.049969580799229585 -0.05392133363484545
-0.011534318689367024 -0.02656202779204422 0.04653524979401236 0.05846417306125155 -0.05627895018065122 -0.0565688379403867 -0.04403346596407738 -0.024643486439964786
0.011461575391736308 0.022175382968204805 0.028298512410474357 0.030194510503274555 -0.003140151757170426 0.05023862258230783 -0.024101206577415046 0.05192136076613228
0.02151968351124515 -0.06303663155593435 0.02911383543354994 0.05139030491380591 -0.02528980362036505 -0.0023560061160569704 0.041615167493340384 0.05381732191232087
0.03937115062628319 -0.011160934339350892 0.014436082624009333 0.003480996867836168 -0.06405134636561141 -0.053531011418528264 -0.024542060084187522 -0.02528547645998331
0.004764123690548597 -0.003495187704746334 -0.02163612082669898 -0.025288631393899044 0.04314183121462674 -0.010034619935432773 -0.038880170188322016 0.05434378423624676
0.001633050493976783 -0.005397768818315654 0.04244959768126245 0.03414114142621618 -0.002417695769198683 0.03136348005794691 -0.007978959877967906 -0.062208012146143445
-0.05241049627689187 0.047768696061893 -0.024828145265290247 -0.06036678591902447 -0.0039007431746560612 0.034776726207487736 0.048227044462589415 0.03762362333744063
-0.040464891368733644 -0.02978712200661896 -0.02967783671411196 -0.004409910497583225 -0.0024564675033891133 0.05486107884136563 0.026412684119071016 0.05393911790561077
-0.06032868600062627 0.034412327336620974 -0.042377965506910135 0.027799041415496398 -0.02344316995249788 0.025245079229190105 -0.060065155111109644 -0.04961023733744483
-0.04370409464641885 -0.0340374094342818 0.0018765307091251366 -0.056652582290842454 -0.0552195589476609 -0.008299657817316706 -0.05670030640826927 0.012937670187249707
-0.018991064119607076 0.021956880290366253 -0.001198814367383987 -0.0423238138509637 0.01943462812636833 -0.021184299311547167 -0.06056832431077656 -0.00012809956475451101
-0.049234894503644655 -0.05260622377708439 -0.05645861607684982 -0.040865443779584176 0.017901524707167136 0.01897733523060941 -0.017489439828183215 0.018352605739019857
-0.00892739356380824 -0.026880949949983066 -0.06182229430707417 -0.028549685557043774 0.040776209548242646 -0.06106678063202148 0.016160286145684814 0.021214846456749103
-0.017528264881299077 0.044915409020713004 -0.0018900756030260576 0.04070480874820656 0.03704604817277494 0.023030937289042798 -0.061544685245223406 -0.05055587651431524
-0.007158670379067279 -0.06399296446667505 0.01170866195736995 -0.024489517688413797 -0.01344068934932646 0.03662982011522568 -0.04296268406658128 -0.003107864207577287
-0.03320395762432969 -0.047836932846645634 -0.021634575260518263 0.034016990595051325 -0.009185348707389794 -0.020943727231799388 -0.015295527779255596 0.044008006734983535
0.02514094925252771 -0.04408011321821136 -0.02467159697600878 0.012868878952056075 0.021694253171432608 -0.029599435078742218 -0.04307429572591555 -0.033013645682220025
0.03491040929563589 -0.018921542839925625 0.03622835765387125 -0.028606429419843732 -0.01222660240662403 0.016015917980638148 0.025008710177533148 -0.03367154822056629
0.00614211961180925 -0.001348360543898857 0.02441445998004915 -0.05883799414907596 0.037585784399796256 -0.04557367738934238 0.05226844459692428 -0.018363957003856717
-0.054675909504899985 0.009828631240230812 -0.05187759419807969 -0.04619265702473281 0.006812756298206357 -0.0357306243150876 0.012521298609552681 0.006632793740676935
0.04500728369647792 0.00441189710586077 0.02562304501406766 -0.05374312145760352 -0.04862564269351531 -0.02848163494883201 -0.00016442986736931513 0.003985538961668793
-0.04571839069095178 0.008854551880178743 0.022229767819460403 0.011872003205004424 -0.04952797823669823 -0.03301725441960792 0.029968602334400084 0.006832366495473138
0.010711840786510204 0.042734588575305606 0.052945668405163696 0.016296007026703297 0.03153125942942089 0.023391768535133497 -0.017350426350284148 0.022759558192630848
-0.03559015294952623 0.008595745641615716 0.013687899818143404 -0.02595587860762399 -0.02690751262876562 -0.06664401379094105 -0.030385628139297856 -0.019070291856982453
0.045249141440483164 0.011542322538143175 -0.02448531061116323 -0.04479149681742201 -0.00404052419329028 -0.012500535764971735 -0.022608003300991674 0.025981862896029755
0.02966662601827929 0.013529623431561132 -0.016686174892029622 -0.04269768370135705 -0.011499349768687925 -0.019249474513657085 0.030506489614877678 0.042304802417695735
-0.06234219411725493 -0.017727503433116458 0.032711782716418523 0.00854641784874132 -0.016431228544875585 0.048577809549456986 0.054358377466907484 -0.03297665192657665
-0.01087591005971557 -0.03969282426802253 -0.018306586530657594 0.012583663504458678 -0.047512528795059336 0.035367233768024725 -0.036634733702496584 -0.04250190452702342
0.02475602977480083 0.005454797658360498 0.011197750320000203 -0.03177264388267399 0.055481142591027585 -0.03536151796706439 0.007491219385554841 -0.0028414339347386623
00000000: dc5a e39f 077c 843f 4b44 9409 ffb1 7dbf
00000010: 0198 a285 3ac4 a33f fa29 f396 8644 9bbf
00000020: 11e0 d4b9 bb1c 9cbf 48a7 3ec9 f627 9ebf
00000030: ed5b 1c89 455e a73f 1148 8656 4d49 a6bf
00000040: 7ea0 c13a 1e4a a33f 5d39 2db2 5a55 663f
00000050: 1157 7676 d403 ac3f d97c 3822 61c0 75bf
00000060: f2f7 7d0b 1f04 7cbf 6159 d8f4 d7a1 9cbf
00000070: 1a40 e5e3 8c3c afbf b90e 76c4 68af a4bf
00000080: 97c9 f86e 2c33 abbf 7bb6 71cb 5f91 7c3f
00000090: 7770 ed5d 5aaf 913f 30d3 90c6 0060 adbf
000000a0: c7eb e2b8 c5d0 93bf ba23 e32a 70b8 6a3f
000000b0: c8b0 a7e6 9c95 a9bf 4567 09b9 939b abbf
000000c0: f076 6b0c 4e9f 87bf c7a5 ba82 1333 9bbf
000000d0: 60f4 f3df 77d3 a73f 154f 921e 04ef ad3f
000000e0: f14d f534 98d0 acbf 7176 da39 97f6 acbf
000000f0: 4a90 7df0 8d8b a6bf d2b9 4661 243c 99bf
00000100: 3ec3 be9b 2a79 873f 4db5 7fc2 24b5 963f
00000110: eb51 5005 49fa 9c3f 746b 854c 4feb 9e3f
00000120: 14af 3f23 60b9 69bf 1165 f971 e0b8 a93f
00000130: 7032 2d98 fcad 98bf 4ea1 e8c4 6f95 aa3f
00000140: abb1 9a83 4109 963f d394 fb2e 2b23 b0bf
00000150: 5d61 316c 04d0 9d3f 0f5e df7d d44f aa3f
00000160: 440d e3fd 91e5 99bf 90e9 f626 e74c 63bf
00000170: 118c cd4e 954e a53f cab8 24ab f18d ab3f
00000180: 9509 b198 7428 a43f a0af d73f 8bdb 86bf
00000190: 1011 0536 aa90 8d3f a901 8ef6 2d84 6c3f
000001a0: a2b2 e745 ab65 b0bf 3590 baae 6a68 abbf
000001b0: d090 c0c5 8d21 99bf 926e d699 6fe4 99bf
000001c0: 9dbd 1eb7 8b83 733f 0f1b 549c f0a1 6cbf
000001d0: 23b0 737d c727 96bf 6488 3053 43e5 99bf
000001e0: 3a10 50a4 af16 a63f cb91 9ae3 078d 84bf
000001f0: 90f0 d706 1ae8 a3bf f134 12d0 f2d2 ab3f
00000200: 2ddc b79d 82c1 5a3f 768e bc88 f81b 76bf
00000210: 21ec 8923 f4bb a53f d356 bf9b f27a a13f
00000220: d414 5588 46ce 63bf 7677 46c2 df0e a03f
00000230: 3312 dbdd 4557 80bf dd07 6f83 bad9 afbf
00000240: 20e8 f36e 8cd5 aabf 797f b776 2375 a83f
00000250: 6d31 bd9f 8c6c 99bf 23dd 9236 65e8 aebf
00000260: 1612 b08b 73f4 6fbf f13a 724b 41ce a13f
00000270: 41c6 7f15 37b1 a83f 3129 954f 6743 a33f
00000280: 0e3b 2172 d0b7 a4bf 2a0a 71eb 8380 9ebf
00000290: 439d 69e8 dd63 9ebf 0db5 d855 2010 72bf
000002a0: e35d e7f2 951f 64bf b5d5 e456 c016 ac3f
000002b0: b6c5 f639 ed0b 9b3f 3d66 c276 e89d ab3f
000002c0: 8445 c4ca 66e3 aebf b8e5 fa18 7e9e a13f
000002d0: 07ad d88f 90b2 a5bf a475 f516 5a77 9c3f
000002e0: 2acd 0a81 7c01 98bf cd7b b296 d8d9 993f
000002f0: 0eab a929 dcc0 aebf cd7e d255 8366 a9bf
00000300: 1a52 6a12 6260 a6bf 11bb b8f0 596d a1bf
00000310: 08f5 a381 bdbe 5e3f cea2 5838 9101 adbf
00000320: 193b 8fef bc45 acbf 129d 2537 69ff 80bf
00000330: 4eb5 6493 d207 adbf 14b2 b9b2 107f 8a3f
00000340: e863 3dbd 6472 93bf 03c6 134b dd7b 963f
00000350: aff3 1e20 31a4 53bf 4bec a988 77ab a5bf
00000360: 25c7 d9d0 abe6 933f 3855 ed42 56b1 95bf
00000370: 9536 2db8 cf02 afbf a2d7 ebe1 4eca 20bf
00000380: f829 6eeb 5035 a9bf c694 60f5 33ef aabf
00000390: 5846 41cb 24e8 acbf 28c2 23c1 50ec a4bf
000003a0: 69cc a9fc c654 923f 6208 b968 cb6e 933f
000003b0: 2981 5970 c0e8 91bf dd29 c885 06cb 923f
000003c0: 471e 297b 8648 82bf 2caf ae03 ae86 9bbf
000003d0: 0cd6 6cf8 2ba7 afbf cb45 1df7 203c 9dbf
000003e0: dbd8 ed8c 9ee0 a43f f881 5f23 2544 afbf
000003f0: ae78 f571 528c 903f 63b6 e23e 58b9 953f
00000400: 78e7 aef1 edf2 91bf 902d a909 27ff a63f
00000410: e0c8 b939 8df7 5ebf 4c1a babc 42d7 a43f
00000420: 553b b21a b3f7 a23f 9a87 cf09 6c95 973f
00000430: d3df bdf4 c882 afbf 5ecb 7fb8 75e2 a9bf
00000440: 9b33 93f2 6852 7dbf 32f7 8ec9 d761 b0bf
00000450: 349d 7e01 b6fa 873f e325 44b6 c713 99bf
00000460: 9f46 87c9 ca86 8bbf 5511 e8ce 24c1 a23f
00000470: 7a58 0776 34ff a5bf 58f6 38e4 a975 69bf
00000480: 9e43 30f0 1b00 a1bf 970d 3c1c 157e a8bf
00000490: 40bd d3c4 5f27 96bf 5a69 3acc ac6a a13f
000004a0: 5f9e 67a2 c4cf 82bf 4254 11be 4572 95bf
000004b0: 4919 b2fc 4253 8fbf c4b7 60ab 3788 a63f
000004c0: 16ec 518b 8cbe 993f 3f36 5a29 ab91 a6bf
000004d0: 0db3 9bd8 8243 99bf e1d1 e1b1 ff5a 8a3f
000004e0: 46a0 87af 0437 963f 29b6 9276 504f 9ebf
000004f0: facf e186 d50d a6bf 76c1 0d21 2ae7 a0bf
00000500: 29f1 6df4 c6df a13f fbd6 bf3e 2b60 93bf
00000510: 7451 9ff6 858c a23f 2816 41fb 004b 9dbf
00000520: 9837 d2cb 420a 89bf 99df c40f 7a66 903f
00000530: c182 4f21 e29b 993f 4177 d3ac 653d a1bf
00000540: 2701 c6ad 7a28 793f e3df 1c1c 6f17 56bf
00000550: 4fbe a7ac 1a00 993f bdd9 4379 0320 aebf
00000560: c750 95a5 713e a33f 3130 e4db 6e55 a7bf
00000570: f32a 50f8 edc2 aa3f 3be0 064b 00ce 92bf
00000580: 51bb 6716 7bfe abbf c00c ee8d 0821 843f
00000590: b0aa f334 b38f aabf fa1f 795e 90a6 a7bf
000005a0: 2650 f157 b1e7 7b3f f644 cccd 484b a2bf
000005b0: 1578 4040 c4a4 893f 013a 2803 fd2a 7b3f
000005c0: 05c8 1dd7 310b a73f 891f 879c 3512 723f
000005d0: 24fb 6f71 ed3c 9a3f d139 17ea 3784 abbf
000005e0: ce33 3bd2 75e5 a8bf 963f 912a 4a2a 9dbf
000005f0: e3a0 40ce 598d 25bf 2bf2 f4f7 2353 703f
00000600: a6d0 afa1 6668 a7bf db04 f8d5 5522 823f
00000610: a107 2177 66c3 963f a12b 074c 5950 883f
00000620: 06f9 862d bb5b a9bf e331 df37 a3e7 a0bf
00000630: b378 bbdb 16b0 9e3f 7cff 6f6a 41fc 7b3f
00000640: b839 ddee 16f0 853f 398b add8 4ee1 a53f
00000650: 22b3 87d4 b11b ab3f fdb7 f084 e6af 903f
00000660: cb23 1a80 dd24 a03f 077f 6a03 03f4 973f
00000670: bb08 fc66 4fc4 91bf 5a5e 6f18 484e 973f
00000680: 29a9 f45d df38 a2bf 0de4 5273 a59a 813f
00000690: a80d 8fd0 6608 8c3f 4fe6 0887 2d94 9abf
000006a0: f16d 079b a48d 9bbf c5cd b403 950f b1bf
000006b0: 12be 81fc 681d 9fbf 3256 679f 2987 93bf
000006c0: 5b62 513d e52a a73f d7d5 914e 80a3 873f
000006d0: 65b9 3a61 ad12 99bf 917e f03b e9ee a6bf
000006e0: 9453 4df4 cb8c 70bf 2221 5882 e199 89bf
000006f0: 43f4 386b 8d26 97bf bbdd b54d fd9a 9a3f
00000700: 9eeb 1f92 ed60 9e3f ec74 5351 6bb5 8b3f
00000710: e28f d33d 2e16 91bf dd7c 3986 78dc a5bf
00000720: f848 7499 f88c 87bf fa5f 015e 22b6 93bf
00000730: 41be d8dc 173d 9f3f 9f0b b29d f9a8 a53f
00000740: 0efb c9e9 50eb afbf 1e9a f09d 2827 92bf
00000750: e3f7 eb49 99bf a03f fb2f 44c9 c880 813f
00000760: 49f1 ee14 59d3 90bf 2d08 a7ce 30df a83f
00000770: aacd f77a dcd4 ab3f 25c9 1cd3 50e2 a0bf
00000780: 096d 2af0 1b46 86bf 9beb 3b2c 9e52 a4bf
00000790: d261 cd39 f6be 92bf e861 b9b9 76c5 893f
000007a0: 666b a6ea 8f53 a8bf 2c6e c470 a71b a23f
000007b0: 9fbe 4cae c9c1 a2bf e22c ec43 cfc2 a5bf
000007c0: 7bd9 0b09 a559 993f cb85 c818 c557 763f
000007d0: 622e 4e9b d8ee 863f 425f c404 8144 a0bf
000007e0: 2644 f239 0668 ac3f c931 69a6 e71a a2bf
000007f0: 6b37 4ae4 1caf 7e3f d8ad 593a eb46 67bf

network.2.bias f8 [256]
0.01883037826500001 0.09907379672517055 -0.015802599388865374 0.06951419628925164 0.13323890928544657 0.04927458221267045 0.06458626580979898 0.14058003208381945
0.0859409321521573 0.16473983956067775 -0.033384854417120864 0.18755757462877953 0.12971230232359796 0.015543528526944043 0.03150224070142977 0.016590449427726858
0.1589465355334681 0.07781936949886753 0.10234710936021446 -0.06521928712791952 0.1552805754895041 0.07254253581466506 0.08119366015159937 0.20470700740734293
-0.10342326860692565 0.04375102878783874 -0.05161994227941347 0.10555761860853577 0.16752521070825568 0.04589837652614684 0.06357230969172577 -0.056640245262852995
0.0735382320489546 -0.03627683167146878 0.08854332984051473 0.02204931539350169 -0.0512567008248265 -0.013439653036877625 -0.0407762252756939 0.10506686410327319
0.11024206341880811 0.0918592458214181 0.03307536302110284 0.10512283379034573 -0.10166232000404199 0.1819558641106836 0.17370406173374417 0.012293421136800774
0.08308035317519308 0.13228753960956635 0.083689156858745 0.08181722597205737 -0.06769243583487705 -0.05746769553617621 0.10711881468770695 0.16982339261561735
0.12173468742499778 0.1259233182288078 0.13592747918959516 0.19290611907726563 0.02038040841302238 0.13984354281240774 -0.06586833953401845 0.12998446415401055
0.04726566773502807 -0.05570039477139456 -0.02180348566437129 -0.04499781575011772 0.14901758981741756 0.13731870452784886 0.09530271973967205 0.11573532207981943
0.1306966221904829 0.055730753089542714 -0.07113774386781677 0.0663254254533568 0.09694198490220036 0.032210489037365314 -0.10553656504110868 0.10875465496035577
0.17322714264609898 -0.10206986957615208 0.07902185501190342 0.16160052555858984 0.009108474233571721 0.14368876982265358 0.08658063355189174 0.12933283197069775
-0.037362933290391344 0.057993943042523075 -0.015101428800254427 0.1504635706228611 0.1688727788100108 -0.001957886711817289 0.1157795291905575 0.17457193419273936
-0.046226516079686204 0.0965117380533436 -0.056631179735016496 -0.0397416812761481 0.07454794335343362 0.0926383398252002 -0.04814810797141068 0.08821368333276926
0.10921907665424253 0.09976809130024125 -0.0283866482418857 0.07175703978755725 0.16177735148908026 0.10705225547435972 0.14577264646880914 -0.04163922183030118
0.19231139791371665 0.10183104791526697 0.10100080983101313 0.13273383309407946 -0.06622955129655646 0.1908776008018972 0.09913698458543252 0.12721337554376375
0.023686168199861198 0.16809076087984648 -0.0356091340317909 0.014583998934200705 0.11822515677352781 0.14998748017203137 0.13933488881914782 -0.0441284225264964
0.1507201978559641 0.0779997625027168 0.06746338385294635 0.017098136143385456 0.03013180020675508 0.05905546073303785 0.015997673117951736 -0.05340070376594917
0.1474059019774326 0.1330918112877813 -0.0018996014357246583 0.10992625617666159 0.1418409144947243 -0.046586450950812396 0.07247304706303215 0.18401285119417743
0.14528709026748587 0.035448923719583476 -0.06868874554005348 0.007065335369349792 0.18495351829200374 0.13220941943914596 -0.0029291603646184766 -0.020193374200347683
-0.034179985502127225 0.07573820281879576 0.19526049093970035 0.0026291308520017763 0.07416793575304284 0.08367502220104968 0.13391501817324444 0.11293381804236878
0.17946615973155156 0.1720617249857427 0.12998563921519654 0.042152772259071526 0.12120179577037693 0.08910610761823877 0.0563372211632974 0.1368944523331084
0.05874994488676999 0.04930683372727715 0.09010868499314971 0.16777955586683432 0.14386437837850605 0.05739814738603997 0.1922717864294581 0.14333173085411438
0.07279067069746324 0.1387420458913633 0.0835127552344208 0.01643358151314626 -0.018752421862563495 0.14557507382879217 -0.06851541429145776 0.02151128636195242
0.031410678821210555 0.18496245171113818 -0.020325963166013043 -0.00033720739731039196 -0.009560079921001998 0.03590726874788433 -0.07832302515654388 0.0760289758310608
0.028377194810035516 0.10735539288646528 0.07461166231779301 0.09163957380161368 0.1460833591289449 0.14344152396072332 0.10173366277760343 -0.010938053160898978
0.013747628471700434 0.11283277488776128 0.16748884497237576 0.12453380317052266 0.17626130782822538 0.04459903848822933 -0.01268245323214477 0.0784553182588447
0.10111911781438371 -0.0332362391966837 0.08173915265987683 0.11008325437073713 0.06909105698310658 0.003995088529168178 0.15803011414160723 0.09059470412591619
0.11674323067218664 -0.020138874470208578 -0.05854019990942506 0.06192717449219198 0.07227235875313501 0.1775924266430496 0.1080850764651745 -0.07026501203462415
0.009116480839833538 0.15781315538538138 0.08846433523929549 -0.032147548841457006 -0.05302808092550273 0.06045244076190191 0.1543489524844105 -0.05175994232107363
0.03194821458325213 0.10037988354273213 0.17593337223032504 0.10771215242301811 0.07502764372688954 -0.01762109317076252 0.17347513523289054 0.1490354609511751
0.024752394432226116 0.09451824166069511 -0.0012669333713189092 0.10142513585426884 0.0402754122332572 -0.03743012415578328 0.07454892056117908 -0.042560511259640464
-0.0354457396234153 -0.03019953787709632 0.027388456775966692 0.06912083389199461 0.14317089103960853 0.12668888660154343 0.08528384506857513 0.16009139143246381
00000000: e226 474b 4548 933f a63d d37c e65c b93f
00000010: d592 447e 8e2e 90bf 1389 abaf aecb b13f
00000020: 24c5 f7fa f80d c13f 7045 419e 843a a93f
00000030: 6881 6cbb b988 b03f 2da4 22c8 86fe c13f
00000040: 8b34 fb94 3900 b63f 7d75 a1ef 3116 c53f
00000050: 7977 ced3 d117 a1bf 6ce7 92f8 e201 c83f
00000060: 2732 2fa8 699a c03f ef57 8015 49d5 8f3f
00000070: d970 20cb 0f21 a03f ef42 df36 16fd 903f
00000080: 32e1 f62d 5c58 c43f ac33 fe5e f8eb b33f
00000090: 54d1 8a8f 6b33 ba3f bc68 4811 36b2 b0bf
000000a0: b73a b7e0 3be0 c33f c794 e4ca 2592 b23f
000000b0: 5a60 fe92 1bc9 b43f f8cc 09d7 d633 ca3f
000000c0: 51ea 4f84 f279 babf 4dc8 9eeb 8866 a63f
000000d0: a0ae d2d7 ed6d aabf ea6d c4f7 d205 bb3f
000000e0: 01ad 9f52 7771 c53f 3414 3df4 fd7f a73f
000000f0: 1fa1 0e5f 4646 b03f c82e 1542 f3ff acbf
00000100: 50ea a7cd 66d3 b23f 204e 437b e092 a2bf
00000110: d1a6 f191 c6aa b63f 309f 0e82 1894 963f
00000120: 34aa 7c7b 513e aabf 6a93 1ab2 3f86 8bbf
00000130: cee0 0614 9fe0 a4bf 7b82 3779 a9e5 ba3f
00000140: adff 06e9 d238 bc3f 1662 a368 1684 b73f
00000150: d43a f504 41ef a03f ba3f 317d 54e9 ba3f
00000160: fa20 a7b3 8a06 babf fadc d56a 544a c73f
00000170: ff15 2a48 ef3b c63f 467a e80d 4b2d 893f
00000180: 8cdc d307 c144 b53f 564c 2550 ccee c03f
00000190: b0f5 bc0f a76c b53f 54a7 cc45 f9f1 b43f
000001a0: 98ed 189e 4a54 b1bf 8908 cfe1 676c adbf
000001b0: 64b7 de7d 236c bb3f be9e b0de c5bc c53f
000001c0: 3d76 4725 012a bf3f 1a5b cc5a 411e c03f
000001d0: bd9e df56 1266 c13f 304c 51d0 25b1 c83f
000001e0: 87c4 730e 9ade 943f 0cd1 77a9 64e6 c13f
000001f0: 6df3 235c bfdc b0bf 9cc8 43b7 54a3 c03f
00000200: 4385 4aa2 3433 a83f 42b9 d51b c384 acbf
00000210: 2018 7827 a753 96bf 8d8d 1326 f409 a7bf
00000220: d9b3 6525 0213 c33f dbc0 89c8 a893 c13f
00000230: 5e72 8050 c265 b83f 7229 537f d4a0 bd3f
00000240: cabd 00bb aaba c03f b654 cdc3 bd88 ac3f
00000250: 566a 6c4b 1536 b2bf f527 37fd b3fa b03f
00000260: 9da7 c39e 30d1 b83f 7cde 01aa e47d a03f
00000270: b33c 62bf 7104 bbbf 92ad 5756 58d7 bb3f
00000280: 19e6 3898 4e2c c63f 1a8f bc3f 4021 babf
00000290: 5a04 f2ba c63a b43f ec30 2576 53af c43f
000002a0: afe1 98b7 76a7 823f 1d6b 98c3 6464 c23f
000002b0: 9284 92fd 252a b63f ab7d ce6d fa8d c03f
000002c0: 6535 2101 3c21 a3bf 96aa 77d1 61b1 ad3f
000002d0: f549 8f76 7fed 8ebf fc43 88e9 6342 c33f
000002e0: c739 168b 9f9d c53f fa5b b06c fc09 60bf
000002f0: e472 6b2b baa3 bd3f be21 1486 5f58 c63f
00000300: e160 8a7d 00ab a7bf d285 9e46 feb4 b83f
00000310: 7ca5 ca11 c3fe acbf 33fc bc8a 0559 a4bf
00000320: 08e3 aff2 9215 b33f 10ac e76f 25b7 b73f
00000330: f1f5 336a dea6 a8bf 6954 f904 2c95 b63f
00000340: 454c 540a c8f5 bb3f 02a2 51d1 668a b93f
00000350: 7229 5eb7 6311 9dbf 4b34 255b ab5e b23f
00000360: 3d86 f0c8 1eb5 c43f 99b4 39d0 c667 bb3f
00000370: 5f11 9e96 ada8 c23f baeb fb6f bc51 a5bf
00000380: 8cfe 57ee a89d c83f 7773 837c 9911 ba3f
00000390: d1fd 1767 30db b93f 0f1c 1b18 6cfd c03f
000003a0: 6df3 d87c 6bf4 b0bf f4d5 7d5e ad6e c83f
000003b0: 4855 9e9a 0a61 b93f 6b80 c923 8748 c03f
000003c0: 72d2 24d7 2f41 983f 9e8d 5e80 ff83 c53f
000003d0: f1f9 3544 5c3b a2bf 0103 bd33 37de 8d3f
000003e0: 6522 e8fd 0044 be3f 41fc 122d ca32 c33f
000003f0: bdc3 55c3 b9d5 c13f 2097 2627 0098 a6bf
00000400: 7baa 51a8 cc4a c33f e980 0bdd caf7 b33f
00000410: 1f6e 53c3 4745 b13f 30cc 3b7e 2c82 913f
00000420: 1a9a d4e1 deda 9e3f c749 ff70 843c ae3f
00000430: 9c30 6aab b161 903f 5e2a 8448 5657 abbf
00000440: 8b7f 1d54 32de c23f a257 6c08 2709 c13f
00000450: 1f08 ae82 811f 5fbf 6d1f 408b 2024 bc3f
00000460: 56aa 7ed4 d727 c23f 1378 8ae6 2dda a7bf
00000470: 4029 faf6 978d b23f 401b f6ac bb8d c73f
00000480: c86b 9d72 c498 c23f 29a7 1b80 5c26 a23f
00000490: bba2 b2eb 9595 b1bf 4fcb 8b85 8af0 7c3f
000004a0: d211 2c90 8eac c73f 7b6d 5bfe 3cec c03f
000004b0: 6598 10ff e4fe 67bf b441 2567 92ad 94bf
000004c0: a49b d1ff 0980 a1bf 7a1f 2a30 9463 b33f
000004d0: b5b9 64b7 4bfe c83f f30e d7e0 af89 653f
000004e0: 2a9d 787a abfc b23f 1578 d8eb b96b b53f
000004f0: 87a8 bf97 2024 c13f 37b9 1a0f 3be9 bc3f
00000500: ac92 6443 bff8 c63f 9d82 da5c 1e06 c63f
00000510: 9780 b092 5ea3 c03f 7daf 9354 0c95 a53f
00000520: 88dc 0cb5 1407 bf3f f71c 186a a8cf b63f
00000530: 6d44 e374 3bd8 ac3f d923 e3e5 c185 c13f
00000540: d067 dc07 7914 ae3f 0ceb a7cc be3e a93f
00000550: a792 21df 5c11 b73f b356 b1ec cc79 c53f
00000560: 7ff7 18e0 256a c23f cd80 bf3b 4a63 ad3f
00000570: f939 54a5 5c9c c83f eead 3fb4 b158 c23f
00000580: 7f79 19ce 68a2 b23f 207e d7a2 4cc2 c13f
00000590: 4fdb 8788 1761 b53f 0bd6 9efc f6d3 903f
000005a0: d365 7bba d533 93bf a78d 9a3a 34a2 c23f
000005b0: 0559 a7e7 398a b1bf 3d8b adfd 0d07 963f
000005c0: 4684 907c 0f15 a03f 3a2d 8b80 d9ac c73f
000005d0: b11c 3b4c 54d0 94bf 7f9a 50be 6619 36bf
000005e0: 61e0 dc34 3c94 83bf 04f4 eb01 7062 a23f
000005f0: 5036 924f fa0c b4bf de26 be8c a276 b33f
00000600: fb31 a54e e90e 9d3f 2421 7f9d a47b bb3f
00000610: 1e1c 8ef9 bf19 b33f a74f 7fec b075 b73f
00000620: 156d f908 dcb2 c23f cd5c 26b7 4a5c c23f
00000630: a837 88a2 370b ba3f a81f dda4 b066 86bf
00000640: 0cd5 7775 b727 8c3f 4c53 0fd6 9be2 bc3f
00000650: 12f3 cc43 4670 c53f 4928 dd83 72e1 bf3f
00000660: c111 5604 bb8f c63f 01e0 7a67 afd5 a63f
00000670: 77bf eb0e 42f9 89bf 6b77 1ed2 a515 b43f
00000680: bc5d 0348 f1e2 b93f ac98 c820 5704 a1bf
00000690: 9617 7a6b dbec b43f 740c 5c89 6a2e bc3f
000006a0: 8842 3096 f3af b13f f309 3d69 275d 703f
000006b0: 9abb 02ae 543a c43f 085f 69eb 3631 b73f
000006c0: 7a34 c465 e2e2 bd3f 2343 e9fc 489f 94bf
000006d0: 217d 3928 fbf8 adbf f0f4 5a2a ebb4 af3f
000006e0: dade 3ff9 7080 b23f a37e 3940 59bb c63f
000006f0: 7784 9aac 76ab bb3f cce3 bd48 e3fc b1bf
00000700: 4b5a 7e58 a9ab 823f ae1f a1b2 3833 c43f
00000710: 5d14 b742 99a5 b63f 935b d7bd a475 a0bf
00000720: 5379 b022 7f26 abbf 4e4d 1250 9ff3 ae3f
00000730: ccd3 8bdb b4c1 c33f 3212 0677 4780 aabf
00000740: deef 9931 845b a03f e308 fefc 7eb2 b93f
00000750: f58a 0018 fc84 c63f a7e3 090c 0693 bb3f
00000760: a159 1afc 0235 b33f b882 8d8b 430b 92bf
00000770: e249 3fe8 6e34 c63f f262 5d0f 9813 c33f
00000780: 451f 5612 b158 993f 50e0 cef4 5832 b83f
00000790: 587c 5859 e7c1 54bf 7187 7c69 fff6 b93f
000007a0: 48e0 bf94 fa9e a43f 1fc4 448e 0a2a a3bf
000007b0: 6d2a c357 a315 b33f d321 ecc7 7dca a5bf
000007c0: 9921 eea8 f125 a2bf 0b51 25ae a0ec 9ebf
000007d0: 2210 9038 b80b 9c3f 4ed2 0929 e7b1 b13f
000007e0: d78c 607b 6c53 c23f 3032 5c68 5737 c03f
000007f0: 6158 727d 29d5 b53f a26a 49ed df7d c43f
