recordpolicy2.pth (torch, 568068 bytes, 6 tensors)

network.0.weight f8 [256, 13]
00000000: 931f 7a00 284c 53bf 3162 002a f7d4 733f
00000010: 32cf e8cc 6abf 9e3f 5706 b9db 429f 9c3f
00000020: f3b6 7f4d c122 91bf 03fb 1d53 e2f5 773f
00000030: 596f e4c1 6e4b 82bf 2e2d 362b 2d93 87bf
00000040: 5c95 2731 f88a 813f 901e 67a2 b2ec 96bf
00000050: 3ccd 5b66 65dc 97bf 0615 1d71 1ef7 83bf
00000060: ca0b b5fa 4ea3 3d3f 0b94 a0cc d259 793f
00000070: da3a 9a6d ad8b 93bf 2c62 4210 45bc 833f
00000080: ff9c 09a4 7bf7 833f dd6a 9c57 52fc 56bf
00000090: 73a8 b191 2ef8 81bf ca13 5b31 cf0f 76bf
000000a0: 1210 8d58 047c 893f 0e83 c225 f25e 9a3f
000000b0: 577f aefa ed63 90bf b3dc e1c9 b47f 8a3f
000000c0: 6f99 53ae a674 933f 4575 160c c260 433f
000000d0: 5404 579d 1f16 633f 8ce1 e625 a993 84bf
000000e0: 9480 b62b 2dcc 8d3f a1f7 b8d4 caa8 893f
000000f0: 06bf 2c9e 786e 823f deee 3f90 5865 583f
00000100: 1027 907e 8295 91bf 52b3 63d2 78db 6bbf
00000110: 3082 04c9 701d 6f3f 1ccc 1f72 68a1 a3bf
00000120: 30ba ba84 76e2 91bf d10e a4fd b401 84bf
00000130: b6a3 3a39 4b08 553f df79 e4a0 8da0 55bf
00000140: a00f 7511 cdb9 9cbf 8ee1 eed3 d161 a23f
00000150: 6db7 008e 0ea2 a13f b7b5 de8d a536 9abf
00000160: 02b7 8397 2c9b 5abf bb47 e129 6ec2 78bf
00000170: dcbc a985 3857 953f 168b 184b 96bd 9f3f
00000180: e579 e145 0cbd 7b3f 4426 44e1 787f a33f
00000190: 2c97 287e 6d14 963f ba4c c232 fbf4 4e3f
000001a0: bf04 4165 fd9d 90bf e7a6 c423 19be 493f
000001b0: 9848 3f87 08b2 90bf 8098 34b3 7fa3 89bf
000001c0: ff89 ac48 6bfb 52bf a11c d08f e9a1 903f
000001d0: 24db 86cf e6c2 71bf 8b53 7c47 b3aa 823f
000001e0: a27d 5d02 03e2 93bf 102f 249e 6131 92bf
000001f0: 0ad8 a272 7bf0 44bf f3e6 c749 afcc 84bf
00000200: 9e68 7892 20c4 4dbf da39 4ef5 b5d5 683f
00000210: 5d4f 0d66 0b52 87bf d507 2f0f 71eb 843f
00000220: 44cb 46b9 291e 833f 04f3 a272 7ae8 903f
00000230: a8a1 3f00 6113 56bf 7ab8 53b1 1502 90bf
00000240: 7afc 7c5c 55ff 67bf 5e0c eda5 e283 653f
00000250: 63d4 a016 164d a5bf c8df 6104 d470 8abf
00000260: cef6 18f1 218e 84bf 2d2a 8e9f 8790 403f
00000270: 9900 112d 476a 8abf 053b 5896 4af3 8dbf
00000280: 7b99 ee26 a24f 69bf 6985 0ae7 37a4 70bf
00000290: 4f7a 078a bef9 83bf 038b 9572 2479 803f
000002a0: 581f 1f5d 0d3b 82bf ddf8 ef28 6412 613f
000002b0: d6fc 1872 f39a 90bf 8df5 067f 7d32 97bf
000002c0: c8db ddd2 6b2a 3e3f 3ed1 a36e f023 76bf
000002d0: d9c6 0b86 6986 54bf 236b 7778 b20f 713f
000002e0: 6388 4ced fd97 97bf 5d15 83fc 8a3e 933f
000002f0: e37f 6654 db18 923f d253 31c2 8c4b 8f3f
00000300: a566 0caa a4d6 87bf 27e7 2000 9f43 7ebf
00000310: 0de1 db2d a760 8c3f 8497 b2e4 976b 9f3f
00000320: 93e4 11ec 8497 8cbf 1902 e124 eff0 9d3f
00000330: b77c ccf5 af84 913f 5059 2555 9cfd 21bf
00000340: 8741 eaff d36a 82bf 54b3 3bc9 4533 a3bf
00000350: 9936 2a09 0435 8e3f 37d2 bfea 9643 8c3f
00000360: c3d7 e00e 9af7 8c3f cef0 d1c3 abca 813f
00000370: 5769 3233 e2be 90bf 0876 a7e6 e542 783f
00000380: bd6f 5301 1eac 783f 4c4d 58c3 318d afbf
00000390: 7bae ee56 dd3f 84bf 40ff bc64 c456 833f
000003a0: 9a68 ece1 3602 36bf 4274 06e4 1605 84bf
000003b0: f364 ca8e 7b32 6cbf 4227 82dc 2514 a33f
000003c0: 4117 f759 d866 a33f 4617 bd5f 1031 82bf
000003d0: 5b8d 14a7 2ac4 883f f133 2a82 0016 80bf
000003e0: d6bf 7227 f557 92bf d87a 5b4a 00f9 883f
000003f0: 2da8 9a26 0c9e 90bf ba07 7583 5aa5 9bbf
00000400: 1d4f cc17 db95 88bf c86f 5d0f ec02 443f
00000410: 8533 4970 7bb5 79bf e9ab 5522 af74 8bbf
00000420: c064 1d1a 67fd 943f e7fd 0380 a79f 913f
00000430: 93ab 6b88 2229 80bf 319e 8440 16b6 603f
00000440: c396 fdb5 7fcc 81bf 5a2d 2930 1754 933f
00000450: 4705 eff7 2ee6 983f 4f2c 55d6 ce3d 7dbf
00000460: da43 ddb4 8564 a83f 8f4b 619b 5f61 a23f
00000470: 6efe 1120 85da 3dbf 6da0 daf8 e807 47bf
00000480: 270a e903 09d9 8bbf 53c2 7650 4235 a03f
00000490: 52b4 5ed7 0f43 9d3f 7066 0897 a837 84bf
000004a0: 6cbc 963b 9c48 5dbf 062a 074c 578d 6ebf
000004b0: 98c0 c98e 91a2 983f a582 d7fe 8284 a33f
000004c0: c2ec e98e 7a70 62bf f5d7 537f dcf6 a13f
000004d0: e9de ee4b c04d 8e3f bb77 fcd7 ff1d 463f
000004e0: ca1c ad63 75f6 84bf aa9d 00c9 63ca 7b3f
000004f0: c709 f5e8 55e6 5a3f c995 fc15 b0e9 693f
00000500: f854 2fe4 b544 a0bf b0c8 84f8 51ce 833f
00000510: 8750 6e49 466c 683f 1b11 230f 5639 743f
00000520: 8688 e584 1a9e 80bf 464f 7b8c 3ab5 9cbf
00000530: f8dc 01a4 e427 883f dc53 a2c9 517d 88bf
00000540: 90f6 7529 ec19 223f adb3 c914 85ea 523f
00000550: 10a9 64ce dabf 513f f82b 03e1 09cc 863f
00000560: dea6 45f2 c748 843f 5080 d1c2 3ec9 8abf
00000570: 111b e7b7 7423 81bf b8de 5d2b d4b5 6abf
00000580: 101d 49df 0eba 873f 06a2 455f b05a 913f
00000590: 139d 1d0e 00ca 913f e255 43ab 10d6 9b3f
000005a0: cfef dfb0 4eae 943f b2de fe37 8ec8 323f
000005b0: a36a d7ee ad77 803f 1385 977b 5139 93bf
000005c0: eaa7 4027 7a41 813f 172d bed9 251d 823f
000005d0: 6972 6dac bdf8 693f ba09 e5ae 8fdd 86bf
000005e0: 932e 0891 08c5 75bf 9a1e 900f 2b90 873f
000005f0: 857f a5bc 123a 993f b53b 638d b2f7 8dbf
00000600: 90c6 535a e069 8d3f 5763 67fe cbf1 8d3f
00000610: e853 86b5 49ef 4b3f c46f b589 0087 46bf
00000620: 6e6c 76e4 9d67 8abf 9d22 0a5f 994d a53f
00000630: 4b93 af92 d583 a43f 36d6 f343 d344 97bf
00000640: b844 ddcb 1940 693f 3f50 ea8e 693b 4d3f
00000650: c329 57af 413c 973f 6760 f9c3 9dbd 963f
00000660: 169d 79d1 47cc 9b3f c4b6 717e 3e09 9e3f
00000670: d20a 3465 d634 733f 5615 37f3 a36a 543f
00000680: 91e8 69e1 5650 943f 7b37 5880 e7a0 58bf
00000690: 1fb6 4a24 c493 78bf be72 0ee0 e7f3 6ebf
000006a0: 2e70 fda1 6383 9c3f 2df6 4cf2 fbcf 92bf
000006b0: 8301 818e e833 643f 2f3f bfcd 52ed 8a3f
000006c0: 18a5 0b43 fb18 8cbf aded 6f3f 4954 8ebf
000006d0: 550d 12fd 9b61 7e3f b730 c20b d772 82bf
000006e0: 1c68 b15b 6f03 f3be 6fbc eccb c3ec 593f
000006f0: 98ff d8f5 3a25 8cbf da50 955a 115b 883f
00000700: c0a1 d2a1 ba89 843f d549 34f5 fd6e 66bf
00000710: 997d 50ce e5f8 72bf 02aa 26a6 02ed 50bf
00000720: 7206 084a e8cc 863f 6ff0 c7f9 c8ee 8f3f
00000730: d52a 9ae1 3926 8abf ec2e 3ae6 616b 9a3f
00000740: 2f9a 147b 675f 8f3f 3fdb b9ae 49bc 3b3f
00000750: ede4 8c1a 1c32 88bf 5fa7 3669 8a0c 923f
00000760: 4cfb df31 2af6 903f e7d0 4323 c1e5 8f3f
00000770: e1d8 ef7c 8533 b2bf 3d5b 956d dc22 8d3f
00000780: 365a 0fce 6b7f 7dbf 6a19 bc32 9e86 7cbf
00000790: d850 8721 5494 073f fc95 7178 560d 96bf
000007a0: 9a4c 8497 99c2 4fbf 4fad ef5d 58db 98bf
000007b0: 320e 3999 7793 54bf f938 2cee 7839 7cbf
000007c0: d843 0e8d 1764 8e3f e218 3d82 2a88 613f
000007d0: fd62 42a7 da0d 553f 3f77 3680 8fe0 92bf
000007e0: 2733 f0c6 340d 773f 9826 8da1 15af 713f
000007f0: c497 e28f bc03 6d3f ce2e 3dd8 a37d 82bf
-0.0011778250354001804 0.0048417715879840876 0.03002707362811847 0.02795128313142067 -0.0167341426421705 0.0058497277076401425 -0.008932938854335925 -0.011511185532774162
0.00856584453590397 -0.022387305414467706 -0.02330168187377278 -0.009748685671761691 0.0004522388287179739 0.006189177927841359 -0.019087514700511267 0.009636439856238153
0.009749380057839206 -0.0014029316066116939 -0.008774150677897751 -0.005386170718058867 0.012443574859965199 0.025752814821888008 -0.016006201196091165 0.012938892756422104
0.01899967612271197 0.0005913684364490598 0.0023298852417786096 -0.01004726550023418 0.014549591919433426 0.012528977028633483 0.00899976952277327 0.0014890065076533158
-0.017171896910475104 -0.003400550823349149 0.0037982180439402255 -0.038340820246866 -0.017465450144920236 -0.009768880835060586 0.001283715687274018 -0.00132001715571272
-0.028052524748332197 0.03590255462717372 0.03443952067787746 -0.025599085601859275 -0.001623910471660606 -0.006044798208749864 0.020840533407349024 0.030996654828537272
0.006772087041183349 0.03808191060859348 0.02156230051527712 0.0009447313837135575 -0.016227683358242425 0.0007856009247337565 -0.016304143194994042 -0.012518880516449338
-0.0011585757917563775 0.016242646601338454 -0.004336263279063588 0.009114647502011205 -0.01941685392318749 -0.017766499783689105 -0.0006390192768523939 -0.010156030120004078
-0.0009083899539661549 0.003031592738302208 -0.011386956264381071 0.010214694286222606 0.00933487507504583 0.01651183438001437 -0.001347393729696925 -0.015632952640708166
-0.0029293696606199045 0.00262636439529866 -0.04160374666427271 -0.012910515197503872 -0.010036721391880301 0.0005055105421985555 -0.012898021757905819 -0.01462419768634283
-0.0030897299797800182 -0.004062860840947515 -0.009753693187062455 0.008043560740309546 -0.008901695637078141 0.002083964943721302 -0.01621609100243123 -0.022653542402385752
0.00046029217161652454 -0.005405368030768463 -0.0012527494911264618 0.004165360594437203 -0.02304074059350859 0.018793269788848977 0.01767294600142567 0.015280818630495494
-0.011639868201700774 -0.00738870725222699 0.013856226050379417 0.03068387349471592 -0.013960874990731653 0.029239403367912063 0.017107724549643346 -0.00013725789410541167
-0.008992820975692662 -0.03750055390796683 0.014749557046595018 0.013800791777591843 0.01414413793473191 0.008687345422224626 -0.01635316312295151 0.005923173952820722
0.006023518760425559 -0.06162410268384608 -0.00988743707224348 0.009442838978088397 -0.00033582534699550806 -0.009775332292344289 -0.003442040752201886 0.03726309124711104
0.03789402101715079 -0.008882644578658404 0.012092908119092518 -0.007854465458217748 -0.017913656742791627 0.012193681973653822 -0.016227903228959107 -0.026997961305148734
-0.012004577316055138 0.0006106999050916545 -0.006276590520951757 -0.013406151042280672 0.020497904747888596 0.017210595310641976 -0.007890958584047236 0.0020399508104167676
-0.008690831891452594 0.018875467600350283 0.02431558025614791 -0.007139022787053652 0.047641924217380185 0.035899150578777676 -0.00045552969101689863 -0.0007028472479833188
-0.013597555572350718 0.03165633423066496 0.02857613327039516 -0.009871785267978356 -0.0017873311720497899 -0.00372950601761102 0.024057649936765374 0.038120359047529896
-0.002250899669261481 0.03508652738848631 0.014796736066144916 0.0006749629246518488 -0.010235707382561538 0.00678481081562358 0.001641830345605487 0.003163188855881603
-0.03177421961269461 0.009670868298233465 0.002981316832526618 0.00493749253127287 -0.00811405866688043 -0.028035082649537267 0.011794840102295798 -0.011957777944454344
0.00013810165249232955 0.0011545467015381214 0.0010833393840337692 0.011131360225041562 0.009904443818146754 -0.013079157181152962 -0.008368408071772334 -0.0032605308469405257
0.01158534640229772 0.016947513403836843 0.01737213216929685 0.027183781102243183 0.020196179910257513 0.00028661224495916536 0.00804077038894963 -0.018773339432191238
0.008425669024365551 0.008844657618985381 0.0031703667222429577 -0.011164782070982027 -0.005314858878147216 0.011505447781032619 0.024635594142977908 -0.014632601680572547
0.014362099415367952 0.014621347142495784 0.0008524999530431484 -0.0006874802233300882 -0.012892945799469948 0.0416076591982961 0.04006831565474175 -0.022723485014429744
0.0030823234400619536 0.000892092268105056 0.02269079811757436 0.022207703672706105 0.02714645591768513 0.029332138507405472 0.004689061624278694 0.0012461281847760595
0.019837720401917173 -0.0015032063250859085 -0.0060002958095260175 -0.00377841270569798 0.02784495998581365 -0.01837152162919702 0.0024661581155955305 0.013147971061612999
-0.01371952341419784 -0.014809200523805932 0.0074173062613483625 -0.009008102461187979 -1.8132608357347796e-05 0.0015823280406939385 -0.01374288618819701 0.01189244802177607
0.010028322280349111 -0.0027384719957208405 -0.004631898574216997 -0.0010330701703461513 0.011133017310388047 0.015592165110312998 -0.012768222997029547 0.025800256421049036
0.015318687862032025 0.00042321013345463296 -0.011814326820614751 0.01762596385166348 0.016564044279216802 0.015574940575313124 -0.07109865474908218 0.014226648420544325
-0.007201596367812748 -0.006964319192553562 4.497415301654852e-05 -0.021535254575061544 -0.0009692430458322521 -0.024274235471165636 -0.0012558620409358731 -0.006890747436740557
0.014839347831896818 0.0021401243447228694 0.0012850413595854586 -0.018434755516515407 0.005627828751141795 0.004317364212349205 0.0035418207981647593 -0.009028701817121922

network.0.bias f8 [256]
00000000: c459 5ce2 c7c8 a23f 69a0 2e22 e37b 943f
00000010: 6d77 fe09 22ba 963f c6b6 6676 5aae a73f
00000020: 60b6 1b4e 397c 70bf 5239 751c 8619 923f
00000030: ed72 7454 23c5 7d3f 6054 e6ca 3063 9c3f
00000040: 0d94 0b3f 0673 983f dc9a 7ee8 ae19 a83f
00000050: 07df 792a bec6 9c3f ad19 cab0 b24a a43f
00000060: 127d 6c81 3bfd 883f a713 847e 40f6 953f
00000070: 3841 ea5f ac9c 933f 6b6a b988 a7c8 a93f
00000080: 3f7b db80 83d9 733f e45e a6d4 9adc 943f
00000090: ca4d b1f8 5bca 9b3f f73a d29a 1708 873f
000000a0: 4572 68be b2ad 983f 0b33 debc 0b80 863f
000000b0: 1909 b13d 9839 963f 2c08 507b b2ed 8b3f
000000c0: 3725 ea2d d4c8 a23f e374 262e 910c 9c3f
000000d0: cf3e 0221 0b3e a73f 6b1f 7191 c509 923f
000000e0: b949 9173 3252 9d3f 43b2 af89 a844 43bf
000000f0: 707a db72 8897 a63f 88d8 7d31 01e0 883f
00000100: a21e 8a78 f217 9b3f 2081 79dd ef63 a23f
00000110: 0724 2024 1a70 8b3f b095 df0c 7445 953f
00000120: 102d 779e 1243 a23f cbb1 36cc d264 943f
00000130: 1df9 d4e0 b6cd 9b3f 2964 29cd 5862 7a3f
00000140: 0795 e46d 44b8 a33f 4ffa 6ca0 97e1 a53f
00000150: 790b c4f4 5dc5 a43f bf06 be3a 384b 793f
00000160: a18f 6183 c9fa a03f fd0c 5e91 59f1 8e3f
00000170: 0d31 ec3d 9140 a23f 8146 4403 924d 9f3f
00000180: 2004 4c17 36b9 a23f d32b 1fd4 897b a03f
00000190: 35fa a3cf 2470 a43f c686 4fd3 47c4 933f
000001a0: 43c8 01bd 40fd 8a3f 764f 55e4 1452 823f
000001b0: 91ec f712 e504 a53f a99c 7b69 fc33 a13f
000001c0: 26e9 e776 7d61 a43f 7b48 bbe1 9149 ab3f
000001d0: f59d 8903 eccd aa3f e6a3 3207 09de 903f
000001e0: 651d 8bde 69b9 a23f 31ad a434 e041 a33f
000001f0: 7fa5 7bda ff0c 913f 9676 ed9c abf1 74bf
00000200: c484 969e 533c 933f a733 39e0 2072 923f
00000210: 0bf3 dc8d 876f 983f dc30 8db0 53ae 973f
00000220: 1f81 5f31 e924 983f e3ae 3524 c3de a23f
00000230: 77a8 19f4 ccf0 a13f 0b56 4b68 474e 803f
00000240: 6e60 a70a f348 7b3f 7a86 7b6c e580 973f
00000250: 50bf 2e69 cd87 a13f d484 4d06 2906 a33f
00000260: 76bc 6aed 42d1 9f3f a5fa 6b50 db1f a73f
00000270: 32d3 8279 9f16 aa3f 1a8c ac80 cb77 a23f
00000280: 0ec0 7fd8 e05e 923f 65a7 fda8 2b58 933f
00000290: 1d36 9d09 72c9 9f3f 1c03 ec33 9ef9 a03f
000002a0: 25a6 1b01 10f0 933f d57b e242 efbf 9b3f
000002b0: 2609 8ff7 deda 9b3f 90e3 503a 775d a13f
000002c0: ca9c f94f 0806 a13f fd4c d21b c655 933f
000002d0: bbfa cdbb 1967 9d3f 9b50 c744 e729 793f
000002e0: 504e fa5f 141f a63f 8bd1 5216 1fad 963f
000002f0: ead3 f06b 5cb8 a43f 1455 17aa 1e92 993f
00000300: b4a0 1e64 e677 a23f ed17 115d 00d8 933f
00000310: 9888 fdae 68bf 973f 7530 8657 5623 a33f
00000320: ed8e 3292 a946 9f3f f274 5c3a 65bb a13f
00000330: 69ae 3613 6186 8b3f 38cc fd1a fc7b a03f
00000340: 9ac7 7fa2 fddc a03f d2ca 9365 f32b a03f
00000350: ea80 ee9f cdd9 943f 197e 0b72 8863 a23f
00000360: 0cef 61a5 73eb a53f 14a9 0256 e630 af3f
00000370: 0dc7 242b 6572 853f 5eff 10a4 b7b3 9e3f
00000380: 524a ed92 799f a53f e052 14c1 32da a53f
00000390: e756 5d58 a9ef a63f 632d f0ea 23f2 973f
000003a0: bcb4 5777 e65b 9a3f 5bc3 bdf1 dcbb 973f
000003b0: 7b7e 4b07 6a5f a33f 824e 8c78 8c2f aa3f
000003c0: 26cd aa3b 90d1 a33f a3a8 add4 5907 a03f
000003d0: 2473 afd7 b9e7 823f ace9 7453 3d43 803f
000003e0: 6f2d 79ce 30d8 9c3f a30e 94ea 4d69 a73f
000003f0: 40a2 da0c 3808 9b3f 2530 b565 3332 943f
00000400: d0aa af6e 1a17 a23f 810b 267a 3987 a93f
00000410: d603 45d0 00b8 a23f b22f eb79 0bb0 873f
00000420: 27f0 dce7 e0d6 9e3f 6a97 d08a bf1c a43f
00000430: cd6a 3344 2245 923f fea7 8055 1496 943f
00000440: da7e ddaf 1bef a23f 5ba4 8d31 189d 6ebf
00000450: a3fd 5714 262f a53f b0fe 8349 9228 a33f
00000460: 1b21 a9a3 401d a33f 5184 c85d 5cad 913f
00000470: 3569 aee1 15cf 9f3f dc47 115c 3346 873f
00000480: ba6d 05d3 3d86 48bf 2ce8 20d7 a9df a43f
00000490: e54d 9920 2f81 a93f 8f8f e864 7273 9d3f
000004a0: 442b bee1 05fa a43f 2f11 1ae7 d2b5 a83f
000004b0: 6b0f d617 04d6 993f 79b7 029c 422c 8e3f
000004c0: cd98 37a3 9983 a13f 759a 0631 f969 933f
000004d0: 0ace 89df c0fb a13f f6c9 b7f1 2219 a33f
000004e0: e8bc 8e45 cf90 943f 53e6 cf35 91b7 a23f
000004f0: 78c6 aff5 fc05 a53f 97e4 6c8f 3934 963f
00000500: a2c8 081b 505d a13f e5cc cdae d96b a43f
00000510: 6aca dd70 bb3a a83f 13d2 dadb b645 8e3f
00000520: df98 37ad 0e64 9f3f 32b9 0779 79fe 9b3f
00000530: 412a e82f 6978 a33f 35b4 4d9f f68c 833f
00000540: f1a7 644d 51da 993f 176b 7729 079e 913f
00000550: 272b bc19 36eb 853f 50c2 3a4e b110 9c3f
00000560: 0337 a6ed 1856 9e3f 6b14 798e ecdf a93f
00000570: 86bb 157e f749 8e3f 1b04 efb5 a5d3 933f
00000580: 9b08 a1e5 b245 38bf 7dcc 70c7 71ff 8b3f
00000590: 8bd0 d3b7 e713 843f 84c7 5917 5813 803f
000005a0: a497 ca97 2f84 a23f 19f3 d7ad e9c3 833f
000005b0: b34f cb3b 90f1 943f fa95 57a2 f4f6 923f
000005c0: d7b2 882d 518f 8c3f a020 8360 9475 a03f
000005d0: 4859 e651 7307 a03f b689 de32 1320 a63f
000005e0: 66ed 97c8 3662 a13f 2bf9 b337 3eb7 9e3f
000005f0: 173f 6cf8 126f 3abf 807e 8826 3e7f a93f
00000600: 8638 b44d 5802 793f 78c4 795c 2ef8 933f
00000610: e2ef 71f9 a6d1 a83f 2252 06ef c327 a53f
00000620: cd2a d691 4b34 9e3f bba4 06e0 2044 a23f
00000630: 8742 d828 094d a63f 3b6b b889 b119 873f
00000640: 660f aed1 a380 953f 92b0 d617 0241 723f
00000650: ba02 110b eac1 963f f883 896a 276b a63f
00000660: 1c25 1aa5 603f 783f 592e dbd5 b43e 9d3f
00000670: 9dae 5d80 a115 a23f 201c 4819 0129 953f
00000680: d90d 91c5 30b9 943f 51d8 3dd0 2025 a23f
00000690: 080b 160d 781d 9b3f 2f37 7fa3 b9fb 9e3f
000006a0: 48bd 3652 26d2 a23f 2f47 f284 4497 963f
000006b0: 2273 dc62 2e22 a23f 6e37 906b 8ba7 8c3f
000006c0: 1898 accd 2c7d 8d3f d2bd 2ca0 92c7 8f3f
000006d0: 207d f873 9963 9f3f f0dd ac7b fade 8e3f
000006e0: ae31 7831 94af 9f3f 4816 7c19 19ce 9e3f
000006f0: c00e 95f0 fdd0 a23f e0fb 1402 66fa a13f
00000700: e8e0 7758 2177 843f 5f46 e3d4 1ab6 ad3f
00000710: 07c0 0779 13bd a33f 5a1e 5bc9 ac9e 9f3f
00000720: cb7c 5059 c63a 9c3f 3a13 8c4d 21bf a23f
00000730: 262c f868 72ad 953f 1002 1045 de2f a03f
00000740: 7334 5811 c026 9b3f cc23 cf23 a67d a73f
00000750: 3bf9 5b7e dfd2 9f3f 522f 1629 8830 9a3f
00000760: 1ee5 6ccf 5ffc 953f cc89 e8bf f234 9f3f
00000770: 7894 c330 18cc a23f 6255 837c fdd8 a63f
00000780: e307 5370 a64e a43f b925 2cd1 5e9f a23f
00000790: 3c63 14c8 57ab 983f 5457 521c e5b1 9b3f
000007a0: d17a 9ee8 ef3b a03f f13c af08 9d09 983f
000007b0: 8d74 3ad0 e048 a33f 01e5 0d56 8d53 a53f
000007c0: a14a 9f5d d667 873f ab17 ff35 4f69 903f
000007d0: fccf 9ab9 948f 833f e1a5 1bae 7c57 a63f
000007e0: 20e8 27dd 84d2 933f 7207 7f1f cb2e a33f
000007f0: deac e3cd 8594 a73f 15fe 8d69 d98c a13f
0.036688085920264096 0.02000384231692501 0.022194415912614774 0.04625208564116927 -0.004024719093406043 0.017675490843708737 0.007268083579472712 0.02772213209535257
0.02387628326222928 0.047070947533304625 0.028101893751652642 0.039632400589698726 0.01220175255508463 0.02144718906585621 0.019152348856153995 0.05035899681088981
0.004846109089810479 0.020372790555113776 0.027139126829139028 0.011245903408306541 0.024100106116849557 0.010986415578167838 0.021704081311562626 0.013636965168192537
0.03668845234376266 0.027391689721857026 0.04539522912921045 0.017615401269977776 0.02863386946075661 -0.0005880186976106667 0.04412485506121733 0.012146004984725303
0.02645853863444237 0.035918708596684334 0.013397411563362395 0.02077275589535582 0.03566797432321256 0.019915860857212125 0.027151925537730926 0.006441447144049519
0.038515222944889564 0.042736757596220636 0.04056829083312769 0.006175250669800013 0.033163354194385215 0.015108775852928686 0.035648859795488354 0.03056934494913444
0.036569300025810714 0.03219252313973411 0.03991808924364585 0.01930343844640594 0.013178354042086343 0.008945620744874577 0.0410529695181704 0.03359974658615645
0.03980629040229848 0.05329566841614138 0.05235230963881669 0.016471997322387376 0.0365708431395955 0.037611967493229044 0.016651151380675962 -0.0051132873184919405
0.018784815363350985 0.018013490376961674 0.023862951310763807 0.023125941897249244 0.023578303946011233 0.03685579125416696 0.03504028777827355 0.007961805219944848
0.006661366826357191 0.02295263743042717 0.03423921498267524 0.03715637399614882 0.031071706524639052 0.0451649223014006 0.0509538493946934 0.03607021280029006
0.017940057004977965 0.018891031445867585 0.0310418909423814 0.03315443404972582 0.019470453326823418 0.02709935994846176 0.02720211397150609 0.03391621195664307
0.03324914909608763 0.018881888816918203 0.02871360977905611 0.006143477814891575 0.043205868450198026 0.022144780862349427 0.0404690629733649 0.02497146523622458
0.03607101413882799 0.019378667526574068 0.023191104584278394 0.03737897699747431 0.03054299311464963 0.034632838606038066 0.013439901732304098 0.03219592885479766
0.0329360257018287 0.031585317754339606 0.020362103353932882 0.03591562645101138 0.04281197923498156 0.060919950484576685 0.010472097758426746 0.02998244227296653
0.04223232191602179 0.04268034560133116 0.044797222172446464 0.023384629454125682 0.025741196664900143 0.023177578215327937 0.037837327375879824 0.051144017901745734
0.03870821693763053 0.03130608292743033 0.009231044668859996 0.007940749272724222 0.02816845188344302 0.04572528351311902 0.026398540291355355 0.019722750742673285
0.03533251382017044 0.049859806214064946 0.03656008283952132 0.01156624761406264 0.03011657157115635 0.039281831450621876 0.017841849720620574 0.020103757589971842
0.036980500429079036 -0.0037370178728691034 0.04137534139953949 0.037418910478661416 0.03733255384264763 0.01726288149268768 0.031063405894749613 0.011364365813424308
-0.0007484247089836673 0.0407689166172108 0.04981372139868848 0.028760707291567263 0.0409700239243507 0.04826220580165096 0.025230468706936387 0.01473285711866955
0.03420715443989906 0.018958943955704705 0.03512385109652534 0.03730115128191251 0.020083654995400574 0.03655675680051886 0.041061310759585135 0.021683596972455445
0.03391504602440533 0.03988533266865505 0.04732309105647377 0.014781406959948595 0.03065512592538588 0.02733793069085628 0.03802803716469728 0.00954621003776355
0.02524687800283937 0.017204391389763787 0.010702536259051222 0.02740742721533912 0.02962531042572093 0.050536529914588645 0.014789517913156091 0.01936205790457644
-0.0003703653106904654 0.013670815371460638 0.009803591058222835 0.007849395954710799 0.03616474845811915 0.009651017778190817 0.020452741288707176 0.018520185860230833
0.01394523067673374 0.03214706113937038 0.03130684256318489 0.04321346279108999 0.033952438341624355 0.029995891713945937 -0.0004033490480859088 0.049798910335309365
0.006105751929920916 0.019501423258081435 0.04847451968177531 0.04131901066572065 0.029496365333708852 0.0356760285824946 0.043556486354764216 0.011279475226776739
0.020998534844252424 0.0044565278780447515 0.02222409908813703 0.043786269907975794 0.005919816512354428 0.028559518387551417 0.03532128040282354 0.020664231460639226
0.020237695749768612 0.03543951551448344 0.026479602621757997 0.030257130245266935 0.03675956491076221 0.02206141530456945 0.03541703182984281 0.01399144098288804
0.01439890864055475 0.01551737357439623 0.030653379157340344 0.015073735141057448 0.030943217772845415 0.030083076649154245 0.03675073205752488 0.035113513712069055
0.009992847931230078 0.05802997444847046 0.0385519109003099 0.030878734388151897 0.027567958070105186 0.03661445685978611 0.021169459969353842 0.031615205698475646
0.026515008028628672 0.04588050067065516 0.03107785423980512 0.02557575941823071 0.02147054389499658 0.030475419009357727 0.03671336741698722 0.04462425370153757
0.03966255303522794 0.03637214949965135 0.024091121279613534 0.027045802930465726 0.03170728411281732 0.023474172263203866 0.037665391367434166 0.0416530768915866
0.01142852280819301 0.016026723547632276 0.009551202692229303 0.04363622308103366 0.01935775375202564 0.03746638068652332 0.04605501306817826 0.03427771962651264

network.2.weight f8 [256, 256]
00000000: b411 8d85 b62b 943f 2fbb 5af9 bec5 8ebf
00000010: befb ef36 54f0 8f3f 94b0 df5b 6dc8 673f
00000020: 6149 d045 6368 75bf d781 222d 8e8c 7d3f
00000030: 7cd1 2022 c947 783f 9b44 06f9 a243 85bf
00000040: 7c6a debf 03ce 76bf b7d9 7ec1 4086 9b3f
00000050: 2549 01fb 03c3 9dbf a11f d6d3 6930 70bf
00000060: 9f3d 97b1 3b7b 713f cd9b dea0 e59c 7c3f
00000070: fcc7 253e e58a 8fbf c840 19ee 5f1c 6a3f
00000080: f517 bf5b fc55 733f b155 aadc 9933 81bf
00000090: 4530 e32d d87d 883f 4f7f 6499 d2bb 6c3f
000000a0: bd06 770d df0e 243f c34e a731 3174 87bf
000000b0: ec68 726f 54c6 81bf 6cf6 921e 68dd 623f
000000c0: 5811 abe3 ef0c 43bf 6e95 71e4 0008 93bf
000000d0: 3626 fc2a a3b1 83bf e385 de8e 2954 8bbf
000000e0: 2cf6 46c8 f9b0 733f 9bb2 663f 39e3 883f
000000f0: 1447 365b 4069 8abf 2889 bf25 f913 8b3f
00000100: f57b 9f80 e8e0 92bf bdaf 04f6 d5ad 75bf
00000110: 4c7e 5850 1715 7f3f b85b c916 4b44 813f
00000120: d1fe d722 130c 973f 6c02 46c4 76cd 733f
00000130: 1dc3 3363 12f2 8cbf 944d b208 a6af 853f
00000140: 1020 c49e 98e8 6cbf 88dc b877 35b9 7ebf
00000150: 9fa4 b4e3 c6b9 56bf 461a 7505 30d0 613f
00000160: fc2a a9a7 1fb9 97bf af10 ae9b 703b 803f
00000170: a23f c35c 8072 593f 49a3 a85f 9ac8 82bf
00000180: 141a 72a0 a6c6 733f ac53 8f51 4b9d 6bbf
00000190: 1ddd 18a0 bc69 79bf f93d 7bba 6e5d 863f
000001a0: cdb8 78b7 7f08 813f b0d9 9560 87e5 843f
000001b0: 0baf deff c74a 813f b048 986d f051 7ebf
000001c0: 1670 b74e 8eb7 303f ca0c 2e8d 7afb 89bf
000001d0: aa13 60dd 7d78 973f 0e46 8b47 4423 70bf
000001e0: 6b28 3136 953a 9dbf 3eda e3ef c37a 903f
000001f0: 0366 4877 f955 74bf d7a5 d701 04c1 7dbf
00000200: d109 a684 71cd 8dbf b3be 2507 fc46 853f
00000210: edf9 95c9 d91b 8fbf 8970 5f04 4bfa 7c3f
00000220: ec62 bad9 1727 72bf eaa9 cc84 57ba 37bf
00000230: 82bf ce6f 4a70 963f 2950 d832 26f9 633f
00000240: 0094 5163 62f5 763f e339 8bae 4f78 73bf
00000250: 921a 9025 102e 823f 62d8 9eee b582 673f
00000260: 84a8 3331 80ff 99bf 0357 e5d2 cc41 73bf
00000270: 1a18 0064 e020 903f 4db2 d4e3 2786 953f
00000280: d4da cb79 effa 803f ea4b d179 e80d 6bbf
00000290: cec2 3d0d ce29 663f 172f d7de 3f73 54bf
000002a0: 89ae 92ab c423 42bf 26b4 e620 4f41 73bf
000002b0: b053 b66a 69c8 833f 4fd0 0c4e 912c 963f
000002c0: d084 cceb cbc7 73bf 77c8 42bf f4fb 6d3f
000002d0: 75a8 bef1 8cb7 60bf 14c5 82c3 1081 823f
000002e0: 819a 4bc5 b6e0 7bbf 54b7 e93d 8a89 593f
000002f0: 2231 c5b7 f6b0 943f d8bc bc2f 112c 75bf
00000300: 4602 e765 4eba 80bf b3f2 be43 f1c2 8a3f
00000310: f3d1 7f62 1fce 983f d6af ebd4 9724 943f
00000320: 3ca2 2293 1282 0d3f 8e20 2525 926d 833f
00000330: 05e0 f373 c7a9 803f a134 08a4 bc88 83bf
00000340: b74b d934 331c 923f ff72 43b7 45cb 99bf
00000350: e9df 214e 68ae 85bf 8568 8dd4 c191 91bf
00000360: b873 8e66 de22 76bf eee0 eb38 3508 8d3f
00000370: 8b4a 1521 fefa 61bf bdb5 1615 6e8e 12bf
00000380: 9700 1979 7997 78bf 1939 5318 6d3a 86bf
00000390: 0b9e 2796 7d69 9fbf 774d d4ab 060f 94bf
000003a0: 7af2 9f42 fda9 8cbf 9699 060a 9ff7 4abf
000003b0: 9b7c 2b19 2cd3 9dbf 23c3 9ff8 d9cd 923f
000003c0: 24c9 bc37 b841 643f 5356 8de2 27f9 683f
000003d0: f2e9 f114 55be 733f 4862 7670 6872 7e3f
000003e0: 6f68 3e94 918e 91bf 635f 731b b2f5 963f
000003f0: 4293 c33d 6c21 91bf 03d0 2b15 4f8e 80bf
00000400: c5df 025c 4a45 96bf af6e 9696 d407 80bf
00000410: 1380 cc7a 334e 373f 62eb 6f94 ce26 88bf
00000420: 6a8d 4864 cba9 803f 2212 c3ba aab4 8cbf
00000430: 6085 f2c5 02db 933f 6cfe 1509 50ef 92bf
00000440: 9587 6b8f 5502 47bf 7ad9 69f0 1069 71bf
00000450: df63 f227 1d58 90bf 41a7 0f3b f745 953f
00000460: 1b99 fa0f 1f0f 683f da89 5dc2 94cf 683f
00000470: 82a2 187a be14 95bf 0b16 5ddd 3c99 753f
00000480: c4e5 ed5a 06c6 713f 3c94 ec14 8f49 80bf
00000490: 7f33 3284 445d 82bf e2dc 5762 2aca 813f
000004a0: 243d 7677 db39 893f a9f1 96f0 933d 60bf
000004b0: 81c2 1f78 a2ce 90bf 7bce 7df8 8f90 803f
000004c0: 16b5 6ddf c774 723f ca08 aaee 20b7 8a3f
000004d0: 902c 5f12 11f9 93bf 5af3 94b8 b1dd 64bf
000004e0: 7094 836c bc19 7a3f 3c37 52f4 ad4a 963f
000004f0: cab3 0fd5 e2bc 42bf 8fd2 36f8 bc51 8abf
00000500: cb55 45b0 b7df 88bf 43d1 c676 cb53 91bf
00000510: 351e 075a 5e3a 81bf 5e7c 14c9 af9a 8bbf
00000520: 7d98 66ce 307e 61bf 3df5 2161 3ea9 82bf
00000530: ba75 0cc3 ce39 95bf 4939 23eb 45ce 1f3f
00000540: 4fe5 f9c0 859f 6ebf 199b 5033 3d96 42bf
00000550: 0433 b65f e84c 803f 6fe2 5c64 041b 383f
00000560: a520 331f 488b 7cbf 0398 8193 5e0a 83bf
00000570: 28ab d07b 972e 87bf f95c 1dda 8578 90bf
00000580: 60fa ba1f b5a8 783f 8f61 448c d5f5 8cbf
00000590: 3892 355b 9596 6e3f f9a4 06e6 d70b 673f
000005a0: ad91 1f45 e110 713f cd3e 3704 96b7 773f
000005b0: b843 20be 30ac 90bf 8d93 66e0 0c15 8abf
000005c0: 35d9 077d 572f 61bf b4b0 aa8b 270f 8ebf
000005d0: c3f3 1949 798a 8cbf 674f 6c32 44d3 4e3f
000005e0: 0112 ba97 8869 91bf 045a 4084 3f09 5cbf
000005f0: 9e65 e134 87c5 8f3f 5c83 ad8d 2f5c 863f
00000600: 9b98 9b6b 99f3 843f 3ad8 03a4 65f8 8abf
00000610: d13d 1bc3 d829 99bf 207f 84ef 5aa9 7bbf
00000620: b3c7 ea23 7fef 773f dde8 4915 88c9 6e3f
00000630: 75b6 120e 8ef6 933f 7825 6211 9db5 663f
00000640: a236 51a6 3a45 76bf a09f e4da 33f1 6f3f
00000650: af54 9610 2080 7f3f 7c99 d10c 7f6f 47bf
00000660: 9158 dc8e a5a8 813f 4787 4c18 9ca6 90bf
00000670: 7a6b c61b a37c 943f f5f7 7758 204d 863f
00000680: 1e2c c4d6 fb79 5a3f e417 b0d9 2b19 723f
00000690: 6c41 721b 12bf 8bbf b39f 142e 1caf 883f
000006a0: 756f d6d3 fbac 80bf 2eef bd23 989b 80bf
000006b0: 12a6 2501 850a 93bf f667 03e1 b403 1a3f
000006c0: b4ee 84dc 7e1d 833f 6bb9 d6a7 8803 82bf
000006d0: 0d7c cd4b 60ae 8a3f cd9d 2ab6 f2ac 31bf
000006e0: 6442 ff56 2072 97bf 2dcd c194 2675 883f
000006f0: 8c26 315c 4f94 73bf f054 017e 7855 513f
00000700: 2e84 fc50 0510 823f 3b65 fb74 6d79 943f
00000710: 834d ce16 2049 613f 496a 22d1 e9ed 7c3f
00000720: bbf2 5cc8 da09 83bf c284 4005 a856 623f
00000730: 763b b3c4 d022 91bf 4484 a818 1be7 95bf
00000740: aa74 9105 3db5 7a3f 8fcc 80b6 4e3d 693f
00000750: f633 fdd5 22d3 903f 91b6 2685 d0b6 7fbf
00000760: 5c75 501f ec00 7bbf 6358 18b5 7202 89bf
00000770: f507 b6d0 ec2f 6fbf bae1 1791 8bb0 623f
00000780: af1f f2e2 6f71 80bf db47 dce1 fd6e 503f
00000790: 6bfd cb2c c095 8d3f 8fab deaa 3f0c 843f
000007a0: 8fd0 8fda 63f6 4d3f 93b6 bba3 a31c 803f
000007b0: d15d ebcc b95a 943f 8229 bdb7 8900 88bf
000007c0: bbab 5e8c 9f05 643f 499f 9e8b acf0 723f
000007d0: e087 4b14 82e0 603f 1189 74a1 8464 8c3f
000007e0: 36ee 2b21 50a9 ea3e 14c0 e3ba fe75 933f
000007f0: b381 f8d7 21d0 6bbf f48e 42f3 e2a9 77bf
0.01969800176745347 -0.015025608048146203 0.015595109869534936 0.0029031883159316794 -0.005226505073567673 0.007214122177316948 0.005927835156445457 -0.01038291285002151
-0.005567564627109275 0.026879321870831165 -0.029064237780695685 -0.003952420605294466 0.004267914942331612 0.006985566125797993 -0.015401640853017533 0.0031873582491145115
0.004720674300136442 -0.008399202391312284 0.011958779240011217 0.003507529570143143 0.00015303108987834392 -0.01145208771496387 -0.008679065371599091 0.002302840574514067
-0.00058137620302338 -0.018585218375297634 -0.009616160153672042 -0.013344120667002584 0.004807449066388563 0.012152144667959155 -0.012896063598222741 0.013221689667208894
-0.01843608174374008 -0.005292735848609395 0.0075884733865048785 0.008431040413752075 0.022506999017422317 0.004834617550273462 -0.014133590366755261 0.01058892931022263
-0.003528879247941326 -0.007500847681107044 -0.0013870661048918443 0.002174466888081458 -0.023167128189281336 0.007925872565245433 0.0015531781710258282 -0.009171682400010222
0.004828120122630359 -0.0033709021631502436 -0.006204354112518543 0.010920395914040692 0.008316991602523771 0.010203416476298383 0.008443415161159892 -0.0074023620341156365
0.0002550814085375842 -0.01268668883654413 0.02292057670276263 -0.003939882961917286 -0.02854378836881503 0.01609331275627767 -0.004964804149972138 -0.007264152196037674
-0.01455200849591601 0.010389298408625213 -0.01518983980599572 0.007074635539506721 -0.004431813398377154 -0.0003620589894121328 0.021912730287737776 0.0024381395403541184
0.005605110481245568 -0.004753409630849667 0.008876920839623357 0.0028699448930309826 -0.0253887205152883 -0.004701423733725954 0.01575041399339492 0.02101957634038092
0.008291121391704882 -0.003302530340570699 0.0027054809997298706 -0.0012481807456081234 -0.0005535803130860144 -0.004700955482275259 0.009659598893259375 0.02165438689117166
-0.004829212729221058 0.00366018106623139 -0.0020406487291966765 0.009035235373036112 -0.006806100795734183 0.0015586709993402241 0.020206313101241886 -0.005168978819525459
-0.00816785095673923 0.013067135696354404 0.024223795306129458 0.019670841570515872 5.628222642545643e-05 0.00948633361680631 0.008136327959149989 -0.009538148647175783
0.01768569955886409 -0.02518948489238237 -0.010586562046441332 -0.01715758189980267 -0.0054043471835968845 0.014175811576464938 -0.002194877954630419 -7.078692330849449e-05
-0.006003832344106417 -0.010853626541941485 -0.030675852098196937 -0.019588569867733576 -0.013996103854873033 -0.0008229757841505144 -0.029125870739218667 0.018363385963257827
0.002472743797533943 0.003048494243936864 0.004820186949582072 0.007433326688805204 -0.017145418809015597 0.022421629834610168 -0.016729060430310534 -0.008083932717887881
-0.02174869715301477 -0.007827435346192983 0.0003556132967776914 -0.011792768387740519 0.008136357305437786 -0.014016469788097178 0.019390147525546353 -0.01849103026824965
-0.0007021825575430513 -0.004250589531343935 -0.01596112781826153 0.020774710635954156 0.0029368979156344627 0.0030286698774244338 -0.020586944772875267 0.005273092034092662
0.004339241814585507 -0.007952802492193205 -0.008966956409744984 0.008686381460377427 0.012317385276019062 -0.001982487626007241 -0.0164132486169728 0.008088230868202864
0.004505902054785757 0.013044602664426103 -0.019504801508258895 -0.002547118293163936 0.006372200041572559 0.021769254719905748 -0.0005718333796927929 -0.012851215672392583
-0.012145457331523076 -0.016921214222479063 -0.0084121104454332 -0.013478635143256475 -0.0021353677031639693 -0.00911186918187445 -0.020728331236673482 0.00012132932423300937
-0.0037381756190454705 -0.0005672262983623416 0.00795918981636979 0.0003678212855109724 -0.006968766904897593 -0.009297121883900422 -0.011319335428273528 -0.016084758222260274
0.006020267024438114 -0.014140766471016501 0.003733913146492431 0.002813264538606416 0.004166488610256297 0.0057903156297951066 -0.016281854252216482 -0.012735462759175831
-0.0020977696187812985 -0.014677342366973135 -0.013935992759110399 0.000940712260531812 -0.01700414110247728 -0.001711189296661809 0.015513473798068497 0.010918017874873058
0.010230253788403856 -0.013169092243043069 -0.024573695095396367 -0.006753306596038816 0.0058436361711517336 0.0037582071184348712 0.01949521981139531 0.0027721469624039617
-0.005437115764903718 0.0038991940301861955 0.007690549138165511 -0.000715195690315792 0.008622449323905353 -0.016260565741624402 0.020006702966934388 0.010889294338081593
0.0016159972538527588 0.004418536463168341 -0.013548032248110707 0.01205274596811976 -0.008142440225860284 -0.008109272566563765 -0.01859481639386302 9.923736093089816e-05
0.009333602051462143 -0.00879580270961063 0.013027908623994855 -0.00026970792365907105 -0.022896294889337546 0.01194219724150133 -0.004780111313331791 0.0010579754525868422
0.008819619688042204 0.019994459404960124 0.0021100641956281487 0.007062829348934382 -0.009296139945598516 0.002238586583204056 -0.01673437309801381 -0.021389411335011724
0.006520498625005514 0.003080991493357006 0.01643042021833093 -0.007742704898573331 -0.006592676499193342 -0.012211700584014723 -0.0038070321367635837 0.002281448928212107
-0.00802886401494604 0.001003024989988158 0.01444578301152318 0.0097889875431372 0.0009143817488834904 0.007867124971620931 0.019877341396606078 -0.011719776077047998
0.002444087617694516 0.004624055867601681 0.0020601788149727657 0.01386359803888529 1.2713136162904094e-05 0.019004802853430716 -0.003395143605090045 -0.005777250789978917

network.2.bias f8 [256]
00000000: dff2 21d1 b723 a53f 76bb ecc9 61d3 903f
00000010: 67ad 33f3 6dad 78bf ca76 349b 713a 713f
00000020: 318a 4386 3d20 9e3f abc1 812e a66e 813f
00000030: 2101 f534 4a04 af3f 1c5f 9aff 8e4d 973f
00000040: bcc0 6591 6f42 283f 6b28 60ab d493 62bf
00000050: c5e8 9c9a 0d24 55bf 3d38 df81 10fd a43f
00000060: da7e 8f22 6744 9e3f d2ce 718b de34 943f
00000070: 1fc6 de64 94a8 9d3f c6ae 4c64 f408 ac3f
00000080: 9c05 fdba 7ee7 b03f f935 6460 4148 a03f
00000090: c2d0 b61a 60b8 a93f e30d 0fc2 22b6 a43f
000000a0: f7c5 3772 d600 8e3f d2a7 f5c8 8036 a23f
000000b0: cb2b 3b0e 9c5c 7f3f 16b8 10e4 fe3d 653f
000000c0: 0a35 33a2 9aff 743f dd1e 8134 9781 963f
000000d0: a43d 0ae1 7efb aa3f 2e42 4f2f 8847 a03f
000000e0: 85b1 e12c ca11 843f 6c3b 737f d6d0 a73f
000000f0: c21a 155d 79fd b03f dd1d f495 f5e1 953f
00000100: f045 0817 6d7f a43f f138 a4c3 f1d1 a63f
00000110: 2e04 070c 0b75 a03f e6ed 90a4 18ef aa3f
00000120: e303 0aa8 8eab 4ebf 1f10 661d 1bbe 803f
00000130: 1a92 8d86 b4c3 a53f b2f1 93c1 7493 843f
00000140: 1687 df42 25b4 a23f 8c46 7a83 233b a33f
00000150: 1983 0820 d392 ac3f 3574 d051 6ef6 a33f
00000160: 4166 4e22 d678 9a3f 875c c4fc 297c 753f
00000170: dd22 930e 85af 6f3f 8560 b5cd 753e 793f
00000180: d1d0 a5cf ba7c a43f 0fd6 5175 86b9 693f
00000190: 9329 61d5 65c9 a83f 559f cca1 f93f 70bf
000001a0: 12f8 042a a9a3 a63f cf84 2c6d 28f2 963f
000001b0: 9976 45bf bd82 6b3f dbe0 5191 bf16 9f3f
000001c0: 1485 a5e2 54b5 813f 7249 c806 a853 ab3f
000001d0: 248d 605f ec94 683f 5c84 2f86 b158 ab3f
000001e0: aa6e 68e4 a8de a93f 2880 4407 c2f2 6b3f
000001f0: 536c d488 a43b 763f 167e a833 61d6 603f
00000200: 3c16 6724 5f71 6d3f b54d 2f57 6294 6b3f
00000210: f755 4756 0eb5 b23f a961 a780 78b2 773f
00000220: 2a5e 0f3c 6f53 87bf f947 b5f6 1a89 a13f
00000230: a80a 9a92 b0b7 a33f df21 f5f2 2967 a53f
00000240: 2928 4713 bb02 ac3f fa73 273f a49d 5c3f
00000250: c884 58fc 8975 743f cee2 7480 8cdd a43f
00000260: 5298 474a c436 823f a256 840b 4d21 703f
00000270: b2f9 5e8e b53f 5cbf 3201 f8f5 dfe4 9f3f
00000280: 3bc7 6c33 1a87 ac3f cc06 5743 ec3a aa3f
00000290: a5f4 d61a 1433 ac3f 39f6 4900 ceb6 8a3f
000002a0: f1ef 2e58 1e18 6e3f 356e aa83 9273 5fbf
000002b0: f902 4940 c0bb 603f 425c 14a6 3fdf aa3f
000002c0: 930b 0dbb 776a a13f 8b05 8807 cdd3 8a3f
000002d0: 9042 2e55 8253 a03f 7ab0 d271 e785 693f
000002e0: c76c 6ea2 9a77 8c3f c818 c47e 659a a13f
000002f0: 4d1e 400e 3c22 a13f 1dde 29b7 61e1 823f
00000300: 82e5 39c0 14cc 6e3f cbbf e9bc c8af 893f
00000310: 68d8 0007 9691 a13f 4a3c 1124 ddf5 b03f
00000320: 1ca7 441d 7102 9d3f 3f9f e5e6 525c b23f
00000330: 1803 66cf ad6f 6a3f 4506 0061 4386 a03f
00000340: 4124 1b86 5fd4 683f 0088 cbe0 3b61 7f3f
00000350: dea8 a507 83b5 a63f 43d0 4325 6bb8 a23f
00000360: faca c351 d69f a03f 6edb 81a7 4c72 683f
00000370: 5be8 9ac6 1c4d 57bf 3673 c19d 5df4 a93f
00000380: 26bb b1bf 6e7b 883f e151 f91c 4276 af3f
00000390: 5939 90b3 bab8 a13f e9de c74b 78b4 7c3f
000003a0: 8866 fc05 5746 7dbf 7239 c521 b223 823f
000003b0: e131 8ba1 15ac 9d3f 7993 bd1d 560c 6b3f
000003c0: 25a0 fdda 82c0 773f cd65 0b54 3f2b b03f
000003d0: 269d 214b 73d5 7b3f cb5e 6994 274f 753f
000003e0: 65e0 219c cbcc 803f 0da0 7602 94a9 1c3f
000003f0: dcf2 7002 d32a a33f 58ab 1f0f f679 573f
00000400: 3a6f e8d4 f9c8 6bbf 7d88 3531 be64 ac3f
00000410: b01f b0df 9b0d a13f fc08 22da 2ff7 6a3f
00000420: cf47 207b d0f0 843f f6cd 7390 78dc 853f
00000430: f0a0 9c21 d34e ae3f 6314 0daf d5d6 6d3f
00000440: 43dc 5ef1 e58e a93f 377b a528 1280 a83f
00000450: 0ed8 57f8 cc03 80bf b523 5f18 1a5a 703f
00000460: d982 f0c1 a098 693f c8e6 3fc1 440b a63f
00000470: 19c4 d1fb 733a 823f b839 f29c bff3 a13f
00000480: 2977 0a45 8e73 a73f c1f9 a2a2 daba a03f
00000490: ec42 9eef 4cf3 9c3f d269 9caf 5cdc a53f
000004a0: ceec 6998 68f7 5a3f 1839 c53b 3438 a33f
000004b0: c50c bed1 2dcb a23f 0321 b20b e36f 7c3f
000004c0: 8edc df03 07a6 773f 003c 7e54 3c6a a73f
000004d0: 69d3 2acf a31a 9b3f 1209 fbd3 d82a a13f
000004e0: df5b 97ac 1bd2 a83f 95d1 010a b3fe 9f3f
000004f0: 04d0 b254 a87b ab3f c1e2 cee3 2c66 803f
00000500: e372 8e4f 5dc9 733f 814c 8680 5e7b a83f
00000510: 53c4 3589 2416 a93f d80a c54b 6ffe aa3f
00000520: a0d4 ec0b db46 a13f 3939 ce44 f91d 803f
00000530: bd38 1c46 8c58 873f 04c6 81e2 0c65 5bbf
00000540: f125 1318 63ac 903f 0edb 3792 00e6 60bf
00000550: 24d2 a217 9ac8 ab3f 577a 0281 57e6 a03f
00000560: de98 e111 9f50 61bf fb44 c167 0c51 aa3f
00000570: 5ca2 b5c8 bbe7 a23f 7e48 0146 c0b7 4c3f
00000580: 88f5 fc1d be9c a23f 34ed b7d5 a779 8c3f
00000590: 1e6f 5e55 8e06 9f3f 6358 dabf 057b 9d3f
000005a0: 185b 3e00 0fcf 7a3f 5bf5 2c14 9844 72bf
000005b0: 449c b5b8 24f8 a13f b2a0 01ef 763a 66bf
000005c0: e4c8 6080 e2bd 7f3f 24b3 bcfe d80a a23f
000005d0: c526 342e 7b4a a93f 10f9 27be a628 b53f
000005e0: d3e0 20eb bd85 753f 271f cbe7 0be9 7dbf
000005f0: 158f fe90 ebea a33f 19a6 b160 68a7 a03f
00000600: a953 f4bb b5ce ac3f 6a81 6416 796a 41bf
00000610: c906 2ec4 8b17 ae3f b7ce 0d54 b61c 56bf
00000620: 0f13 7600 615e 6b3f c270 3416 6996 aa3f
00000630: 5c5a 8eb7 7ece 713f c825 1876 5b88 8e3f
00000640: 4844 86f4 5819 663f 461e ca77 5421 703f
00000650: fbfc eeab 7402 7abf e4cb 1d92 e27c 3bbf
00000660: fc90 9f86 ed93 753f 33e7 3799 02e5 9f3f
00000670: 5fa1 8a0c 7789 a13f 33ba fb50 aa63 8b3f
00000680: 88a8 9f08 4548 b23f ce8d 2a1b 5470 af3f
00000690: 258f 2d05 827e a13f d43b 8537 f4eb 4c3f
000006a0: b742 f4bc e352 823f d568 ea42 052c a23f
000006b0: 9708 a356 6e07 8e3f eaa7 7e3d 8d14 263f
000006c0: 6685 b9d0 cd52 873f d83f aa04 ad53 a53f
000006d0: e704 6170 9bcf ab3f 6b7e de5e 0be4 90bf
000006e0: c674 4f7c f92e 533f 755c 6a16 ed6b a23f
000006f0: fb00 4651 5953 aa3f 7fbe 84ae 9eb6 6d3f
00000700: 7cbd e13b 336d ac3f 2146 947b cfa3 893f
00000710: 4f33 f0d6 8481 17bf fd80 04c7 e566 ad3f
00000720: 1507 8491 c324 753f fc01 fb36 61ef af3f
00000730: e344 6d18 676a a53f 65fb 5955 30eb a13f
00000740: 1b10 cac7 3b3f 843f f370 3c54 d84a 723f
00000750: bb94 4c95 cd7d 9b3f 62cf dc63 215a 7d3f
00000760: 3bdb ed2e 13e6 763f cbbc 689e 9c88 753f
00000770: 709a 07ad aa8a 713f 2f72 b2cf 5558 a33f
00000780: c1bc b9fd 0bb6 713f ef61 e574 8f3e 9e3f
00000790: 7a6b c8a3 f3c5 ad3f 8ac9 645c 2adb 9f3f
000007a0: 1d93 f22b 7548 af3f 7073 136f 8bb1 9e3f
000007b0: d818 40ac c55f 9c3f 4aae c6cf 4e25 a03f
000007c0: 1b29 c365 08ce 973f 3d61 d4cf 78eb a13f
000007d0: 46bf 9b4e eab7 673f 9be5 4219 0aa0 a83f
000007e0: 2e00 3699 8fac 773f f135 f328 5d38 a53f
000007f0: c44d 6d06 5d85 a93f 4ee6 a4f8 a6a2 a63f
0.04128813197983105 0.016431358289249208 -0.0060247702524337315 0.004206126951684383 0.029419862098516162 0.008511827749516273 0.06057960411499353 0.022756800032396204
0.00018508541024742596 -0.0022677568149492198 -0.0012903340197696772 0.04099322877264953 0.02955781124535304 0.01973293043233932 0.028963392883900704 0.05475581859931604
0.066032333995301 0.031801264778646705 0.05023479772663243 0.040452085675066994 0.014650035248425104 0.0355720753967287 0.007656678764486234 0.0025930384004118163
0.005126575505710615 0.02197872407876288 0.05270000931806898 0.0317957456351262 0.009799556250265304 0.04651518159663834 0.06636770746727463 0.021369778897705295
0.040034684239923624 0.044570498592394155 0.03214296838587703 0.052605409706725045 -0.0009359785618273632 0.008175098261524792 0.042508737015655565 0.010046875150231258
0.036530651486613205 0.03756056766463897 0.05580768362074746 0.03898949383458509 0.02585157951725692 0.005245365155381105 0.003867874028035663 0.00616308228503482
0.040014112327214975 0.0031402231348305397 0.0484115431759903 -0.003967261433707699 0.04421738279278044 0.022408134139486443 0.00335824069968178 0.030360215420359587
0.008646643797592314 0.05337262232582675 0.003000699677629408 0.05341105235107399 0.05052688396628231 0.003411654435822715 0.005427973473412245 0.002055349204297628
0.0035940988775305088 0.003366653510491447 0.07307519537365424 0.005785437310315813 -0.011389607448946643 0.03424915563176962 0.03851081647464599 0.041802702815917796
0.054708334067598514 0.0017465690585745084 0.004994906431904762 0.0407527834708553 0.008893521801791735 0.003938008267388023 -0.0017241738328120757 0.031146525752775385
0.05571824910874886 0.05123079607029765 0.05507719829209038 0.013043984779183325 0.0036736099877696595 -0.0019196444324397603 0.002042651644189039 0.05248450186098143
0.03401540907227409 0.013099290649736492 0.03188712396434312 0.00311560825374185 0.013900001604091007 0.03438107654987871 0.03346431421237792 0.009218943979461486
0.003759422806805802 0.012542312874955905 0.03431385837068107 0.06625158434438663 0.028329627429378154 0.07172124993450966 0.003227080796193948 0.03227434691508483
0.003030954904577971 0.007661088847017439 0.04435357540462957 0.03656325178045041 0.03246946094613708 0.0029841897158421815 -0.0014221936238940833 0.05069248724678348
0.011954179024738897 0.061449113880971636 0.03461249772964221 0.007008047014543919 -0.007147159514511288 0.008857146888342913 0.02897676275715522 0.003301780887272118
0.005798827318223264 0.06315990259044853 0.006795359006083223 0.005202440841990795 0.008203116133003794 0.00010933843497318314 0.037436098144530056 0.0014328864021943746
-0.003391731216891983 0.05545610762307349 0.03330695252958493 0.003291696034524281 0.010224941976080175 0.010674421223007418 0.05919513497639339 0.003642480231436583
0.04991835185449436 0.04785210367366804 -0.007819749192076866 0.003992177900678341 0.0031245364948663088 0.04305472239498226 0.00890055286638085 0.03506277838561139
0.04580349533828915 0.032675583222487876 0.028271867871413045 0.04269685405434455 0.0016459008635639097 0.037538177772704795 0.03670638261157814 0.006942641160215371
0.005773570444936328 0.04573238879594754 0.02646881057690412 0.033530021549738845 0.04847799760653237 0.031245038495812578 0.053677807177706455 0.00800738401618284
0.004830708022293992 0.04781623190788143 0.0489970605366429 0.05272243308947616 0.03374371071405702 0.007869670307425568 0.01139936055144763 -0.001672041495137556
0.01628260454598335 -0.0020627986102640444 0.05426484621549246 0.03300736856293856 -0.0021136385758381135 0.05139960066356682 0.03692423653666729 0.0008763970217933318
0.03635210147920548 0.013903914651555917 0.03029844661760627 0.028789605936787043 0.0065451227163950895 -0.004459947641234886 0.03509630923036203 -0.0027134249613035228
0.007749447604554958 0.035239010902250706 0.04939637125978672 0.08265154020771015 0.00525449931051743 -0.007302328591954488 0.03890167374563994 0.032527219584903296
0.05626457137456182 -0.0005314913985650486 0.05877339143536415 -0.0013496189642098597 0.003340901810306447 0.05192879100852245 0.00434731959184961 0.014908518353894076
0.002697633495877958 0.003938035919993482 -0.006349998234269845 -0.0004194310332571989 0.005268028102339391 0.03114704189463353 0.034251899987171035 0.013373690220274436
0.07141524754084305 0.06140387374514554 0.034168303615642416 0.0008826200928896363 0.008947161868975468 0.03549210016099528 0.014662611025759538 0.000168459168660206
0.011388404781601035 0.04165402109094857 0.05431829211057409 -0.016494920411444996 0.001170867574948263 0.03597966097475417 0.05141715161426138 0.003627118993015987
0.055520630893506756 0.012519474943959942 -8.96680191859293e-05 0.057425671142711444 0.005162013949531437 0.062373197518812845 0.041827413303175985 0.034997473162539795
0.00988623336275656 0.004465909037915094 0.02684708808660184 0.00716603320124762 0.005590510306197778 0.005257236282474052 0.0042826334979283315 0.03778331909527243
0.004324004020971718 0.02953552390076369 0.058150876753834305 0.03110948742796319 0.061099683394138384 0.02997415414289456 0.02770909179528122 0.03153463636712368
0.02324689026935643 0.03499963318808106 0.0028953148183673864 0.04809600408902811 0.0057798013034471695 0.041445647476944354 0.04984560683683584 0.04420968804556634
