recordpolicy.pth (torch, 568058 bytes, 6 tensors)

network.0.weight f8 [256, 13]
000000 a6 f6 71 8b 3d e7 5a bf ec 9a 9e 5c 6e 48 71 3f
       -0.001642046072248085 0.004219466305505942
000010 0c 30 45 79 10 5a 98 3f af ed a1 b8 29 f6 95 3f
       0.02378106823134378 0.021446849721980573
000020 a7 87 a0 38 cf c8 92 bf cd 90 ec 3a c7 39 80 3f
       -0.01834415228962141 0.007922703252525665
000030 f7 8c 00 98 c4 64 7e bf 3f 1b fc 53 80 ce 85 bf
       -0.007420318550461539 -0.010647776186954892
000040 50 95 d6 5b aa 48 84 3f 41 4b 3e 87 30 a4 9a bf
       0.00990422337310784 -0.026016958479498035
000050 1f 1a 14 08 16 90 91 bf 88 3f 56 e0 19 db 8e bf
       -0.017151207202028226 -0.015066339644164164
000060 ca 0b b5 fa 4e a3 3d 3f 02 4c d9 6f 2f c4 88 3f
       0.0004522388287179739 0.012092943764548284
000070 5b 59 76 4f d6 4c 93 bf f0 03 88 5c 6f 34 82 3f
       -0.018847797965997653 0.008889074336368069
000080 09 db 74 4a 3a 47 84 3f 1e 06 9d 4a d9 c6 7b 3f
       0.009901481053572707 0.006781433863410706
000090 81 26 19 ae 90 f2 8c bf 69 2b 11 38 80 41 81 bf
       -0.014134531319672352 -0.008425714217215679
0000a0 6a 5c eb 39 03 bd 85 3f 05 81 13 20 14 8a 99 3f
       0.010614419179019136 0.02494079061295997
0000b0 c1 b5 87 e3 bd 84 8f bf e7 c0 e7 45 34 65 77 3f
       -0.01538990355126202 0.005711750213308365
0000c0 8f e8 9f 97 4a 6c 8b 3f 45 75 16 0c c2 60 43 3f
       0.013390143158165805 0.0005913684364490598
0000d0 8a 9f 27 d0 37 9a 64 3f 01 b0 fc cc f7 f9 81 bf
       0.0025149431323718318 -0.00877755731888641
0000e0 7e 74 e2 c6 ee 1d 85 3f 5a 5d 82 be c9 7a 80 3f
       0.010310998386837019 0.008046699644451639
0000f0 52 ed 31 a3 0a c2 7f 3f eb 37 b1 bb b6 7e 64 3f
       0.0077534118200860026 0.0025018280989916783
000100 e2 47 cb 83 80 9e 90 bf 65 f2 38 2d bd 7f 33 bf
       -0.016229637188025843 -0.00029753082819520264
000110 7b be e6 08 41 a4 69 3f 4c 41 8e 44 dd 7e a4 bf
       0.003130080243145814 -0.04003039800511718
000120 e0 b6 9a 6d 7e 50 89 bf 97 06 6d b9 52 55 7b bf
       -0.012360561103686718 -0.006673167364000718
000130 b6 a3 3a 39 4b 08 55 3f 97 d5 48 ac f4 cb 5a 3f
       0.001283715687274018 0.0016355409035332163
000140 1f b1 c4 41 4c 53 9a bf eb ae 5b f1 cb 1b a1 3f
       -0.025708381189518122 0.03341519662157374
000150 a1 ff 9f d9 16 8b a0 3f a4 eb 7b d1 a2 18 92 bf
       0.03231116682582003 -0.017672103916065787
000160 6c 00 ab c4 8a 1c 6e bf e9 2a 4d d7 c7 ab 79 bf
       -0.003675719291408133 -0.006267338398923108
000170 94 16 5a a7 c0 ff 98 3f 6b 1e 08 24 4c 2a 9c 3f
       0.02441311856684665 0.02750510187072878
000180 95 48 95 e4 28 db 67 3f 35 e4 2f 92 10 c2 9e 3f
       0.0029121206941136826 0.030037173197318096
000190 63 c3 4f 2a 8c c2 8f 3f ba 4c c2 32 fb f4 4e 3f
       0.015507788697478103 0.0009447313837135575
0001a0 04 a7 3e 3f 6c 92 8d bf 84 1d 8e 40 fb 0e 6e 3f
       -0.014439435653759165 0.0036692530888477477
0001b0 65 c0 d4 ba 0f 61 86 bf f1 e0 3b 8e 38 20 7f bf
       -0.010927317513591281 -0.007599087639157385
0001c0 d8 e9 c5 25 7e 6f 79 bf 70 d1 bf 3e 9f 53 90 3f
       -0.006209843410369641 0.015943992810166063
0001d0 82 71 72 b0 c4 22 5e bf 99 fb 3c 29 39 a6 80 3f
       -0.0018393441003246862 0.00812954575633089
0001e0 94 82 ca 99 58 fe 8d bf aa 09 0b a9 e4 d6 97 bf
       -0.014645282929735694 -0.023280690019200335
0001f0 34 0c 73 6c ee a4 6f bf 94 62 80 a3 f0 07 8b bf
       -0.003862825080064103 -0.013198738088293006
000200 9e 68 78 92 20 c4 4d bf da 34 8f ce 37 77 6b 3f
       -0.0009083899539661549 0.0033527460077268203
000210 ae c7 51 91 ea 48 87 bf a7 9e 41 9e 6d 5b 72 3f
       -0.011369545516774906 0.004481723972368157
000220 16 d3 ae e9 02 e2 6a 3f 74 2c 91 c9 b8 d6 91 3f
       0.0032815987483111415 0.017420661261251927
000230 ed 13 cb 42 d3 74 3d bf 85 b2 f4 36 7e 10 8e bf
       -0.000449468209620384 -0.014679895450705924
000240 f2 7d d2 cc ba 4e 44 3f dd f8 db 3c 6e 7f 42 3f
       0.0006197368726538739 0.0005645073194669132
000250 ee 96 e9 d6 3f 63 a7 bf 18 8d 45 c6 ef 18 7a bf
       -0.045679087624007284 -0.006371437663207823
000260 96 eb 45 08 2c 01 76 bf 2d 2a 8e 9f 87 90 40 3f
       -0.005372211457479367 0.0005055105421985555
000270 cf 3f d1 40 0e 64 88 bf 87 28 66 87 8e fe 81 bf
       -0.011909591057843642 -0.008786309725810305
000280 cf ca 3b 94 8d 44 83 bf 87 f2 aa 0e 32 c6 84 bf
       -0.009408098303059912 -0.010143652985214814
000290 f3 64 b7 6f 64 9b 81 bf 15 0c 09 5e 14 cd 84 3f
       -0.008597168597520332 0.010156783218127111
0002a0 2e b5 db 2d 4f c4 68 bf 6d 1e 93 df b6 21 82 3f
       -0.0030232950656371637 0.008853367517431121
0002b0 a8 37 d0 6f c8 c8 8f bf 31 9e 07 2e d6 e2 93 bf
       -0.015519681846878644 -0.019420000609811253
0002c0 e8 02 f1 76 4b b8 6e bf 46 be 43 c7 16 c2 7e bf
       -0.0037499879759085204 -0.007509316423451267
0002d0 d9 c6 0b 86 69 86 54 bf 82 a9 e0 b0 28 2a 85 3f
       -0.0012527494911264618 0.01033431806361729
0002e0 f5 26 43 fa 84 98 97 bf 69 73 62 6d e0 7e 92 3f
       -0.023042753004836453 0.018062121082596336
0002f0 45 10 8c 43 b6 a3 91 3f bd 6a f8 0d 0f e8 94 3f
       0.0172260740973942 0.020416484096225974
000300 4b 9a 86 d4 6e e1 90 bf 3f 92 75 5f ac 03 82 bf
       -0.016484958383126174 -0.008796068823991308
000310 9b c9 82 80 17 a4 90 3f c5 7a f6 6e 3c 21 9c 3f
       0.016250960558588195 0.027470535538322922
000320 41 f4 73 31 3e 1b 88 bf 43 38 e8 b4 fb 5b 98 3f
       -0.011770711788353096 0.02378838817281116
000330 b5 6a 8d 90 0b bf 8a 3f 50 59 25 55 9c fd 21 bf
       0.013059702252282571 -0.00013725789410541167
000340 ea ce 59 09 0d 81 5a bf 93 de 72 91 d5 b8 a3 bf
       -0.001617682200415633 -0.03851954842087681
000350 94 21 74 af 50 6a 82 3f 5f be 36 2e c3 cc 80 3f
       0.008991842607898794 0.008203053329309982
000360 fb 7e 48 0c 97 86 97 3f 3f bc f8 38 a7 60 63 3f
       0.022974357723909638 0.0023654237809505314
000370 6c f1 dc a3 d5 1b 93 bf 73 14 fe 05 10 35 81 3f
       -0.018660867811591528 0.008401990111233304
000380 0a de 13 e1 a4 d5 7d 3f 93 b8 de ad 0e a1 ab bf
       0.007283824977313733 -0.053963144993177135
000390 72 2d 4a a5 7e 52 87 bf 83 de 66 6a 34 09 88 3f
       -0.01138781492161087 0.011736306664587253
0003a0 9a 68 ec e1 36 02 36 bf bc 32 e2 58 bc 09 84 bf
       -0.00033582534699550806 -0.00978419443370037
0003b0 95 c5 27 8a d9 b5 6e bf 6a 8d de ed 50 5a 9f 3f
       -0.003748822099844682 0.03061796619261995
0003c0 7b 7f 58 aa b9 a4 9f 3f f4 29 10 d9 7a 0e 84 bf
       0.030901814481807826 -0.00979324316906103
0003d0 eb 01 61 b3 35 c4 8c 3f 08 36 9b ba 4c a2 7d bf
       0.014046115433417014 -0.007234859201799455
0003e0 be 8b 66 cc 49 be 90 bf a5 a1 ae 3b 94 d8 89 3f
       -0.016350892162914958 0.012620122977595136
0003f0 2f 9c 22 9a 97 90 95 bf e9 1f 38 c2 9e 5b 94 bf
       -0.021059387953439476 -0.019880753139687988
000400 7e a3 60 ad 04 43 93 bf c8 6f 5d 0f ec 02 44 3f
       -0.01881034191334007 0.0006106999050916545
000410 08 e9 cc 8a ea 11 81 bf 01 dc e5 a3 bc d8 8f bf
       -0.008334953652241697 -0.015550111533896073
000420 f9 0c ad 5d f9 13 95 3f a3 57 ed 9f aa a6 92 3f
       0.020584007589843776 0.018213907252480187
000430 d0 ae 2f dc 98 3f 34 bf 5e 93 aa f2 fb 72 62 3f
       -0.00030896646438692294 0.0022520943505974075
000440 fe 92 96 24 72 31 81 bf 37 39 b2 a9 11 53 96 3f
       -0.008395091764052062 0.021801258070405196
000450 a0 9f f0 87 d6 fd 95 3f bd ff 30 6f 6b 78 72 bf
       0.02147612766944429 -0.004509372392078545
000460 26 09 a4 75 11 fc a3 3f 41 50 54 d5 9a f9 9f 3f
       0.03903250275654306 0.03122560431536692
000470 6e fe 11 20 85 da 3d bf 77 2f 14 6a e8 2d 73 bf
       -0.00045552969101689863 -0.004682453030237946
000480 86 ab 28 30 4f 34 84 bf 9e 30 0f b9 31 a3 9b 3f
       -0.009865397126380914 0.02698972408306643
000490 f9 b2 7d 2c 9b fa 98 3f 75 43 58 5c 03 7b 66 3f
       0.024393486586109046 0.0027442041052911322
0004a0 37 22 a3 8a 81 2b 61 3f 78 2a 0f 8f b9 fd 5f bf
       0.002095940600245673 -0.001952582559385489
0004b0 af 9e d5 93 ca e1 9a 3f a7 ea 3b 23 b5 56 a1 3f
       0.02625195052442447 0.03386465125182286
0004c0 e5 3e 44 b9 10 04 50 bf 5c a3 46 87 e9 41 9d 3f
       -0.0009775317494735089 0.028571747666919264
0004d0 dc cd 9c 59 9b 09 8b 3f bb 77 fc d7 ff 1d 46 3f
       0.013201917335755313 0.0006749629246518488
0004e0 9d 3e 1c 90 a0 bc 7c bf 0f 1a cd 82 d4 ac 85 3f
       -0.0070158264150134405 0.010583553544745631
0004f0 8f fd 58 ff 46 8a 62 bf ad bb 14 e4 48 50 3a bf
       -0.00226320139589093 -0.00040151385845182513
000500 41 33 df 7d bf 00 9b bf 43 a1 1d 6c 7b 79 79 3f
       -0.02637004094849549 0.006219370001282978
000510 5a d9 f7 05 46 46 6e 3f 5c 7e d9 9c 66 43 70 3f
       0.003695618404658746 0.003970528441271517
000520 76 fc e2 03 83 55 82 bf 84 e9 a8 a8 e6 73 95 bf
       -0.008952163272964091 -0.020949939769914674
000530 f7 09 52 b2 0a ef 68 3f 95 98 8d 63 0a 90 92 bf
       0.003043671504714181 -0.018127596212615577
000540 90 f6 75 29 ec 19 22 3f 6c 54 90 c5 59 f4 60 3f
       0.00013810165249232955 0.002069640479485593
000550 ad 19 8b 82 44 99 58 3f f8 f9 ea bf 9b e4 88 3f
       0.001501385597451592 0.012154785913819119
000560 db a2 61 2d 64 f7 86 3f ac 35 81 c9 80 e8 7a bf
       0.011214048991136696 -0.006569388460844133
000570 3d 07 15 02 77 dc 81 bf dd b6 7d 0f 33 17 65 bf
       -0.008721284628908083 -0.0025745389247536624
000580 56 c9 f3 fa 2d 2d 89 3f a9 ca a4 a3 ab 00 8a 3f
       0.012293204518276351 0.012696591311941079
000590 10 1b c6 30 59 bf 88 3f 17 83 c8 e1 ce 6a 9a 3f
       0.012083718110046188 0.025798065691677054
0005a0 b6 99 79 9c f4 ca 88 3f b2 de fe 37 8e c8 32 3f
       0.012105856919515694 0.00028661224495916536
0005b0 65 ad 5c dc 55 f0 8f 3f 3f 77 ec 16 95 b0 91 bf
       0.01559512213460463 -0.017275170826102523
0005c0 57 b0 0a 86 69 37 72 3f 3a 95 fa c8 81 63 76 3f
       0.004447376443447912 0.005465990994399756
0005d0 b1 d5 7d 78 04 95 88 3f cd e2 b3 d6 aa 0a 92 bf
       0.012002978255376858 -0.017618817667399967
0005e0 d6 ae 46 a0 ff 5c 83 bf d4 f9 56 9e e0 1d 85 3f
       -0.00945472438691956 0.0103108928986985
0005f0 04 ab fb 55 9e 77 97 3f e5 5c b5 1d 97 ce 8d bf
       0.022917245862951865 -0.014554195970659165
000600 c7 33 6d e1 0b d7 76 3f 28 40 dd 06 19 aa 88 3f
       0.005576177986608983 0.012043185731869313
000610 e8 53 86 b5 49 ef 4b 3f ca 39 48 2f 62 10 6a bf
       0.0008524999530431484 -0.0031816404027786615
000620 b9 44 c8 27 57 b2 8c bf e2 f9 63 75 68 6e a4 3f
       -0.014012032414969832 0.03990484650602234
000630 c2 1e f3 fe bd b3 a3 3f 21 83 7e df 3b fe 92 bf
       0.03848069894007501 -0.01854795028305312
000640 aa 8e 95 84 88 c1 76 3f 56 e9 19 14 f1 49 6c 3f
       0.005555661461901154 0.0034532269062853933
000650 f7 84 2d a7 af a7 98 3f 36 97 58 cb 59 c6 91 3f
       0.024077171877597583 0.017358210598238354
000660 33 3e ee 35 fc 88 92 3f c0 bd 51 26 15 00 9c 3f
       0.018100682059922057 0.027344065154861985
000670 cc 29 b7 2f 0c 37 7f 3f 56 15 37 f3 a3 6a 54 3f
       0.0076208568602375674 0.0012461281847760595
000680 2e 89 a0 78 69 e7 8c 3f 82 e6 94 c9 a1 06 50 3f
       0.014113258355852833 0.000978143687758865
000690 31 ed b2 fb 59 23 7b bf bf 57 db 6e 4e 8a 73 bf
       -0.0066255106896123 -0.00477057111648621
0006a0 4b d3 bc b9 05 03 92 3f 0b 27 14 38 45 19 87 bf
       0.01758965440895403 -0.011278668187987081
0006b0 80 1d 62 b6 6f e7 7e 3f 64 0d c7 e9 3e fc 80 3f
       0.00754493367833875 0.008293620595287883
0006c0 4c 36 df b9 47 af 87 bf 3c e8 36 f8 48 4a 87 bf
       -0.011564789161549481 -0.011372156214623279
0006d0 c0 88 17 29 cf bc 78 3f e1 ba 7b 3f d9 87 89 bf
       0.006039437504542444 -0.01246614193902701
0006e0 1c 68 b1 5b 6f 03 f3 be d4 eb 73 a5 25 2a 71 3f
       -1.8132608357347796e-05 0.004190585189685476
0006f0 19 0d 51 ef cb 6b 8c bf b2 29 48 06 eb 1c 87 3f
       -0.013877480736602043 0.011285625580985979
000700 70 f1 06 c1 aa da 85 3f ea 0e a0 52 2f c7 82 3f
       0.010670980468483221 0.009168977459928358
000710 e9 be 6f f1 68 90 81 bf ec 52 de 09 91 d7 6e bf
       -0.00857622134023424 -0.0037648995193627546
000720 e7 94 21 0e 01 04 80 3f 92 08 59 86 a0 c9 8f 3f
       0.007820137256383265 0.015521291828126036
000730 86 e1 21 67 67 39 82 bf 5e 1b 70 5d 4f dc 97 3f
       -0.008898551783418151 0.023301353528974438
000740 25 fb f7 56 d2 d6 7d 3f 3f db b9 ae 49 bc 3b 3f
       0.007284948005234414 0.00042321013345463296
000750 f0 1c 1c e9 21 2b 8d bf 59 71 14 6d e3 8a 97 3f
       -0.014242424894759215 0.02299075463553044
000760 07 5f e7 51 6c 85 8a 3f ad aa 4a 17 f4 fb 88 3f
       0.012949796914582657 0.012199313126378309
000770 f6 9c 25 7e c5 10 b0 bf 3d 4a 19 7f 66 6b 91 3f
       -0.0627559121108908 0.017011262423986862
000780 c4 34 95 2a 5c 60 75 bf 9f 0c 6f 2b b8 ab 72 bf
       -0.005218849205744284 -0.0045582956435651625
000790 f9 35 a7 4b 19 1b 32 3f 27 0f 88 f5 46 a3 97 bf
       0.00027627341810618173 -0.023083790527393646
0007a0 32 23 f4 42 b3 f3 4b 3f 3a 4b 2d 81 0c a6 99 bf
       0.0008530259418942697 -0.025047488579114964
0007b0 32 0e 39 99 77 93 54 bf 8d ab 2f 41 92 f4 73 bf
       -0.0012558620409358731 -0.004871913249170923
0007c0 d9 b2 ce 3f 13 0a 8e 3f 7a 97 13 a9 c5 e4 42 bf
       0.014667654404399698 -0.0005765881670895944
0007d0 3c d8 6a df 79 bb 4a bf 79 9d 7b 1c 2c d6 86 bf
       -0.0008158059198055743 -0.011150688761928805
0007e0 fe 35 cb 6d 69 36 5e 3f da f1 03 7b 39 35 76 3f
       0.0018440274790693096 0.005421852620426349
0007f0 dd 88 50 06 f4 e0 68 3f 78 38 dc 42 5c 38 83 bf
       0.0030369535547985897 -0.009384842672741409

network.0.bias f8 [256]
000000 5a d0 c2 b4 8c 3c 9f 3f 33 af 68 5a 93 f9 93 3f
       0.03050441602017915 0.019506742852328073
000010 7a 5c c8 0f 97 30 92 3f 08 d5 e0 e9 17 63 a6 3f
       0.017763481462762055 0.04372477273902048
000020 7c 98 9c 90 cc 89 54 3f 63 d2 9f b2 79 1b 88 3f
       0.0012535569862364418 0.011771155131989624
000030 bb b7 f7 62 31 ef 47 3f 12 1c 90 32 35 9c 9b 3f
       0.0007304183145018164 0.02696307297813056
000040 88 92 f7 64 78 71 92 3f f9 bc 69 85 42 c1 a4 3f
       0.018010979807416422 0.040536955629130796
000050 c5 81 63 15 50 f2 9c 3f e4 7a 05 88 70 f3 a1 3f
       0.02826810007616289 0.035060421566176975
000060 e9 c6 6c a3 d3 60 81 3f c3 1a 07 64 c8 c7 96 3f
       0.008485463547546828 0.02224648581047962
000070 e0 58 b3 bd aa a3 8f 3f e1 19 26 30 e8 f7 a8 3f
       0.015448888696863283 0.04876638019327451
000080 e2 48 88 db 46 76 71 3f 0f 96 4d ff 8a b3 94 3f
       0.004263188159273153 0.02021615203138621
000090 40 48 39 0c 0f 22 98 3f 74 fe f5 17 71 c8 81 3f
       0.02356742393596556 0.008683093589524328
0000a0 71 f4 3b 9e cf 07 98 3f 20 ef 36 39 2f 58 7f 3f
       0.02346729663166908 0.007652458636069587
0000b0 49 9a ba 9e 02 25 9b 3f 7c 5b 7e 77 6d 39 87 3f
       0.026508370340389473 0.01134000321307637
0000c0 fe 20 a2 63 9a af a3 3f 92 2b 3c cf 01 de a2 3f
       0.03844912019946099 0.03685002951359374
0000d0 89 93 43 2e 55 b4 a7 3f 8b fd 6b 37 1d 2b 90 3f
       0.046297704598862906 0.01578946734207202
0000e0 c8 43 27 9c 41 8b 9c 3f e2 0a b8 29 95 06 30 3f
       0.027874970584722353 0.0002445329825776899
0000f0 0e 7c e2 7b 35 bb a4 3f 96 4f 45 2e 4a 37 73 3f
       0.04049079072250815 0.004691400307212398
000100 e3 ed 17 a6 56 9e 9c 3f 1c 66 3c b6 81 69 a0 3f
       0.027947763335744013 0.03205495214042406
000110 fa c9 98 27 02 ba 7b 3f c9 09 76 ff ac f2 86 3f
       0.006769188324641901 0.011205054803899455
000120 28 a1 ed 03 ce 56 a1 3f ed e8 74 ab 04 ae 94 3f
       0.033865392665406724 0.020195076908955768
000130 39 29 e8 41 57 af 9b 3f 91 04 33 1d ca 25 84 3f
       0.027036059758793505 0.009837702766505781
000140 1e 7b a6 bf 45 3a a3 3f d5 b8 db 25 f4 0c a4 3f
       0.03755395855409048 0.0391613289083225
000150 fd 4a e4 13 89 f7 a2 3f bc 41 05 da 97 30 59 3f
       0.03704479568309258 0.0015374644209097251
000160 65 a8 ea 11 d0 36 9d 3f 48 e7 96 6e 3e 51 7d 3f
       0.02852940663675731 0.007157558321915954
000170 f7 30 72 57 3d df a2 3f 4a 98 fb 6a 6b 77 9e 3f
       0.036859433102195575 0.029752424626075226
000180 bf d3 4b ec 91 b7 a3 3f ad 4f 4f 1b a5 0b a0 3f
       0.038509903044463105 0.03133884390231798
000190 76 d0 71 2f fd ca a2 3f aa f3 5e ef 78 9c 92 3f
       0.036704933206153464 0.018175019846001263
0001a0 59 6c bb 11 0a bc 65 3f 3b 82 23 17 e8 bf 77 3f
       0.002653140703711848 0.005798250773495324
0001b0 6b 6b d1 bb b2 09 a4 3f cf d6 31 11 4e 9d 9f 3f
       0.03913649122906445 0.03087350826213858
0001c0 2b c6 fb a1 ee 4d a3 3f bc 1f 95 47 6e d6 aa 3f
       0.03770395018899494 0.05241722701845172
0001d0 e6 38 84 cf aa 91 a8 3f c2 b5 9d 99 42 1f 92 3f
       0.0479863527599365 0.01769737303350439
0001e0 ed b1 ed ae 20 3a a1 3f 83 73 18 92 48 33 9f 3f
       0.033646603921486086 0.03046906844803089
0001f0 8b 32 62 85 6b 8f 8d 3f 6a a6 ed 6f 15 b8 81 bf
       0.014433708198589265 -0.0086518931181729
000200 b7 2a 55 d5 68 4f 8f 3f ad aa 0d 2b 7f 07 8f 3f
       0.015288180361172505 0.01515101766718393
000210 f0 1c f5 e3 63 88 a0 3f 2f 25 10 ff 55 e7 8d 3f
       0.03229057462390894 0.014601394506842695
000220 b0 f5 5d 7d fb 63 96 3f 37 ec be 9a c0 81 a2 3f
       0.02186577751807811 0.03614618195521085
000230 8b a0 9b eb 75 b2 a0 3f 7d 49 b0 b0 e0 2c 6d 3f
       0.03261154652665351 0.003561438415553285
000240 97 34 f3 d1 d6 b8 6f 3f 11 8d 0c 91 98 40 96 3f
       0.003872317858258766 0.021730789044466074
000250 83 65 70 25 2e 72 a3 3f 4c 38 27 35 84 a1 a2 3f
       0.037980501241871266 0.03638852261393363
000260 a5 90 94 96 77 1c a2 3f f3 69 b8 c3 19 14 a7 3f
       0.03537343705309696 0.045075230733534165
000270 53 3e eb a5 b1 35 a7 3f ff 98 3a 6a 64 bf a0 3f
       0.04533152723672331 0.032710206954378755
000280 72 43 c3 a4 5f cc 8e 3f b8 d4 0d f8 89 21 93 3f
       0.015038249221477538 0.01868262840749388
000290 8f 9c 8e 58 3a 26 a0 3f 6b 32 a9 56 ba b3 9e 3f
       0.031541655836286535 0.0299824824708587
0002a0 58 cd 31 63 37 47 90 3f c1 47 e9 5d 5c 9b 9d 3f
       0.01589666884360716 0.02891296694935597
0002b0 40 df f3 1a 56 a9 96 3f 65 2e 57 77 df 10 a0 3f
       0.02213034190660257 0.031378730123461186
0002c0 b6 b3 47 57 ab 93 9e 3f 7a f0 00 82 9a 53 8b 3f
       0.02986018867698067 0.013343054859540116
0002d0 da 34 19 a1 7a 94 9c 3f 2a cc db a1 65 cd 34 bf
       0.02791015251414284 -0.00031741839653348875
0002e0 6e e6 49 5d e6 c5 a3 3f c1 07 a2 04 f7 ec 96 3f
       0.03861923111703623 0.022388324411174446
0002f0 b2 da d5 ea 01 4f a1 3f 4c 8c 3c e7 e1 28 97 3f
       0.03380590430872611 0.022616891611630316
000300 33 59 c2 4e 70 0a a2 3f d4 d2 54 e5 b0 26 8c 3f
       0.03523589097419446 0.013745672224652429
000310 71 9e e3 71 93 79 90 3f 21 b9 6d 98 0f a9 a0 3f
       0.016088775469056352 0.0325398324556423
000320 aa f0 95 8b d8 cd 9b 3f 00 ca 6c 51 65 2f a3 3f
       0.027152427215228293 0.03747097605664251
000330 4a ca 4c 7a 3d 48 75 3f 02 12 bf ef 4f 05 a1 3f
       0.005195846698188131 0.03324365426627553
000340 a6 38 f7 e1 4f 47 9d 3f 34 31 6c f5 5c 25 a2 3f
       0.028592346350529006 0.03544130798226988
000350 e4 5f 9e 24 d3 82 95 3f 63 d0 af 7d 70 41 a3 3f
       0.021006869421029153 0.037608638136504856
000360 f1 44 d1 0f 65 39 a3 3f 9e f2 0a 4f c5 43 af 3f
       0.037547262364236896 0.061063924692893
000370 ad f6 f0 80 c5 60 80 3f 10 bd d4 b8 4b dd 9d 3f
       0.00799707698581228 0.029164488941373412
000380 81 64 b9 64 c9 b0 a7 3f e9 d2 42 84 01 46 a5 3f
       0.0462706504301389 0.041549727816720346
000390 09 37 a1 6e 39 42 a4 3f 5c 46 2a 29 a2 e3 99 3f
       0.039567751650436085 0.025282415163536562
0003a0 4e c2 fd 9d 16 af 9f 3f f8 ef 13 ef 2b b4 91 3f
       0.03094134654333152 0.01728886267390803
0003b0 c2 c8 4a a0 6c fd a1 3f 4f e3 6b 61 dc 5f a7 3f
       0.035136599127683535 0.04565323533274201
0003c0 24 8d a8 99 d2 eb a3 3f fc 22 b4 11 31 32 9c 3f
       0.03890855909073768 0.027535216050668318
0003d0 8d 17 68 46 ef d2 49 3f 2b 3e 7a 1d 7e 28 71 3f
       0.000788084825047207 0.004189007413188099
0003e0 64 a1 ce 80 a6 a4 9e 3f c0 b4 49 61 3e 43 a6 3f
       0.029924966441883596 0.04348177850338564
0003f0 dd 4d c9 4f 91 e1 99 3f 1c c3 87 74 85 55 90 3f
       0.02527453469731521 0.01595123790497431
000400 cd 44 ee a3 c5 c0 a1 3f eb 57 22 bb 17 fd a6 3f
       0.03467385889155992 0.04489969405510393
000410 a2 ae 6a 12 4f eb a0 3f ef 75 0b 2e 38 2b 90 3f
       0.0330452642423016 0.01578986912760699
000420 32 c8 60 9a 64 49 a0 3f 83 eb c6 68 d7 5f a5 3f
       0.031809944004990945 0.0417468371774339
000430 4e 5b 90 3e 59 80 8f 3f 0f 93 3b 30 e1 ad 97 3f
       0.015381524297522067 0.023124235695735126
000440 07 38 16 73 3e 8f a1 3f ff 94 57 20 03 00 3d 3f
       0.034295989559822763 0.00044250561071941524
000450 6e 0c ac f2 17 5f a5 3f ef 1c 58 0f 9b 83 a0 3f
       0.04174113118463017 0.03225407182986283
000460 7c 22 bf d0 c8 88 a2 3f bb 08 92 d5 9c 11 85 3f
       0.03619983242203248 0.010287499683048975
000470 72 4e 8d 47 b1 82 a0 3f 9b ce 43 bd c3 21 78 3f
       0.032247104629871695 0.005891575438215969
000480 ed 72 ed f8 69 5b 74 bf f7 05 24 10 43 fe a3 3f
       -0.004969991640646693 0.039049239845564125
000490 16 73 96 9f c4 4c a8 3f ce f2 06 f3 63 81 99 3f
       0.047460693818015695 0.024907647808265314
0004a0 0e e7 0c ac 82 3e a3 3f e1 4f 03 1f c9 b1 a8 3f
       0.03758629179215066 0.04823139670921229
0004b0 4c 54 f9 46 f7 cf 9a 3f b9 ff 40 dd 3a 3d 85 3f
       0.026183952052026435 0.010370693089612236
0004c0 16 da 8f 56 4e e9 a1 3f bf 36 1f ef 00 b0 89 3f
       0.03498310858406144 0.012542731568739083
0004d0 91 d5 2c 8f 32 e1 a2 3f d3 63 02 44 96 64 a3 3f
       0.03687437055342991 0.03787679271881186
0004e0 ee dd 1a 46 15 14 96 3f 0f ce 67 2a 06 71 a2 3f
       0.021560985950342663 0.036018555332614104
0004f0 cb d0 e5 66 24 9d a2 3f 6c ac 1f 1d 17 1c 99 3f
       0.03635514980388307 0.02452121844536885
000500 dc d8 cb 1d 95 fb 9d 3f 4e 09 98 a6 96 8b a3 3f
       0.02928002352106139 0.03817435058228345
000510 0f b0 82 61 ed c3 a8 3f d7 4d 4e d8 ed c8 94 3f
       0.04836980643571575 0.02029773361898698
000520 1e 85 7c cd 87 cb 9b 3f d4 ce b4 c0 75 f7 97 3f
       0.0271435946625661 0.023404922377450912
000530 68 a5 a3 ee 66 06 a4 3f 5b 02 59 08 13 68 70 3f
       0.03911134398533528 0.00400550303089683
000540 d0 42 9e 06 95 87 9b 3f 8e 26 d8 43 cf 4c 92 3f
       0.026884392289107606 0.017871130481614865
000550 83 46 ba a2 90 13 81 3f ef b7 6d be f9 7a 92 3f
       0.008338098493626994 0.018047239539946188
000560 1d 12 a9 81 11 9d 9b 3f 86 86 52 1a 2a 8a aa 3f
       0.026966355837673917 0.051835361207179395
000570 94 04 d4 2b a3 80 93 3f ce 64 2f 39 5b 76 96 3f
       0.019045400190411302 0.021935868611625157
000580 75 87 41 2b 4d 06 63 bf 1b 47 b1 71 76 13 91 3f
       -0.002322340698854337 0.016675806702841727
000590 ca 46 5a 04 4f bb 63 3f 63 ef 6e 48 b9 7c 6b 3f
       0.002408651666720417 0.0033553713614917088
0005a0 80 4f 25 c3 c3 3d a2 3f 65 c9 3b 85 10 7e 7b 3f
       0.03562747723722648 0.0067120213823151685
0005b0 c3 ce f6 9d b3 20 93 3f 1f 77 a0 cd dc c2 92 3f
       0.018679434315074028 0.018321466494049973
0005c0 e1 d8 72 ab 44 68 81 3f 57 94 f2 72 22 a3 9d 3f
       0.008499657137104712 0.02894262148460699
0005d0 d8 18 8d 21 ce 2d 9d 3f 39 32 10 f0 3a be a4 3f
       0.02849504546909362 0.040513841442678396
0005e0 10 78 9e 5b f6 e1 a4 3f 5a 9b 1b 42 f8 b3 9d 3f
       0.040786455806696265 0.02900684264650564
0005f0 ca 15 e3 44 18 32 64 3f 02 4b c5 39 02 a6 a8 3f
       0.0024652933126130027 0.04814154582222409
000600 52 01 e7 0d 77 b8 7c 3f 95 cb e6 4d e9 42 94 3f
       0.007011857086070288 0.01978649652455607
000610 5f 56 96 5c f2 90 a7 3f 8c 74 0c aa c0 e1 a1 3f
       0.04602773075309296 0.034925480611698395
000620 ee a0 5e e5 05 47 9a 3f 34 ba 35 bb 00 49 a3 3f
       0.025661556362735753 0.037666342594878804
000630 8c 00 cb 77 78 1b a4 3f 36 69 85 5f 48 c9 73 3f
       0.039272083876768255 0.004830630023514628
000640 8f 0e 7d 8a 89 d3 94 3f 03 32 e5 ec 93 cb 64 bf
       0.020338200643222278 -0.002538479725592292
000650 f1 87 86 e6 28 30 91 3f c8 13 21 83 00 84 a7 3f
       0.016785277433548577 0.04592897034357396
000660 57 00 ed 47 fa 87 48 3f 60 b7 ae 75 db b6 9d 3f
       0.0007486316752434258 0.02901785760666742
000670 44 6d 05 38 f7 d5 a0 3f 47 53 66 9f 4a c6 8d 3f
       0.032882428730511865 0.01453836726140313
000680 20 be 48 8d a5 2e 92 3f b7 fd f4 e6 1d 36 a3 3f
       0.017756067989635693 0.037522253458969805
000690 47 fa 66 45 bc 5f 98 3f 1e f2 12 55 9b 19 99 3f
       0.023802701698281827 0.02451174456358462
0006a0 23 01 00 77 00 33 a4 3f 50 4e c9 bf 3a 08 92 3f
       0.03945161297451907 0.017609518008909142
0006b0 5a c4 00 fa 25 1e a1 3f 1a 20 35 31 a4 00 8e 3f
       0.03343313862604509 0.014649660827345246
0006c0 7c 8f 24 97 b6 1f 81 3f a5 f7 c9 41 c1 b0 91 3f
       0.008361269462120673 0.017275828972280433
0006d0 b6 c0 07 66 16 c8 97 3f 0d eb 28 70 ac 58 8a 3f
       0.023224210717615455 0.012864443943831039
0006e0 96 50 e4 71 8c dd a1 3f a8 47 4b ab 91 53 96 3f
       0.03489340677529744 0.02180316551204667
0006f0 b7 ef 04 7e c4 5c a2 3f 4e 6f e1 06 ad ce a2 3f
       0.03586401022263835 0.03673306187621837
000700 4e 76 ef 74 21 cd 7f 3f bf 2a 39 20 0d b9 ab 3f
       0.007763987246077143 0.05414620416975912
000710 d8 23 ff 53 62 65 a2 3f a1 71 c0 af 6a 2a 9d 3f
       0.0359297492537462 0.028482119538340126
000720 a4 ca 3f f0 83 7e 9e 3f 40 68 4e c2 70 e2 a2 3f
       0.029779492891928286 0.036883853644397835
000730 9b 28 80 4d 97 35 95 3f 6c 2f ce 2f a3 17 a3 3f
       0.02071224604154818 0.03728971441805026
000740 a0 43 00 21 22 1d 94 3f e5 40 7a b2 89 dc a5 3f
       0.01964238478109659 0.04269819549256385
000750 73 5a 05 91 50 49 9f 3f f3 cd c9 f6 63 7b 9c 3f
       0.03055311093461417 0.02781444734359968
000760 d5 17 3a 72 ee 92 97 3f ac 0e e6 32 90 40 9d 3f
       0.02302143642602757 0.028566601854903936
000770 e6 7e 7a 7f a4 6c a1 3f 44 7a 9d 71 cb ba a5 3f
       0.03403200203069705 0.04244075548080109
000780 ef d9 a5 72 b9 e1 a3 3f 7f 95 ad 37 22 90 a2 3f
       0.0388315155459401 0.03625590257324073
000790 2a ef 48 36 57 92 97 3f 47 0f a3 7d 71 13 95 3f
       0.02301918286160213 0.020581982892294872
0007a0 9c aa b7 58 bb 7b a1 3f a4 01 9b 7e 09 79 96 3f
       0.0341471238897004 0.02194609484900102
0007b0 2d 99 f3 84 b2 9a a0 3f 93 44 4d 8c 70 06 a7 3f
       0.03243024704879569 0.044971005560577336
0007c0 4e 02 f7 ab 58 c3 76 3f 27 1f 91 74 a7 b5 85 3f
       0.005557390569663824 0.010600383992041508
0007d0 a2 54 64 70 11 d5 72 3f a9 a8 02 05 98 20 a4 3f
       0.004597728844847245 0.039311171161288634
0007e0 c7 57 2f 81 ae 78 8d 3f b9 f7 13 58 32 d1 a0 3f
       0.014390338246737756 0.0328460438267792
0007f0 1a 9c 53 13 fd 59 a6 3f 17 cb b9 32 70 7a a1 3f
       0.043655308350757774 0.03413725489817503

network.2.weight f8 [256, 256]
000000 66 6b ec ab 8e 55 8d 3f 07 e4 0a d0 5b f4 91 bf
       0.014323343869866622 -0.017533716748150876
000010 c1 c8 af 4b fe 9c 83 3f 01 8a 3b 04 8f 2b 77 3f
       0.009576784786962002 0.0056567751487102145
000020 38 74 4a 2e 02 9d 7d 3f 8f bd 38 ea 8c a0 75 3f
       0.007229813116876697 0.00528006596464027
000030 7b 9d 50 ef 75 6c 80 3f 05 4e 36 90 7c 58 83 bf
       0.008019372335253952 -0.009446118498806841
000040 24 8e 74 58 8f da 80 bf 8f 42 23 57 ee 24 96 3f
       -0.008229370009366362 0.02162525565001033
000050 72 24 61 9b bb 8d 91 bf f7 06 5e e7 be 28 21 3f
       -0.017142230375871433 0.00013091402405156886
000060 ed 79 10 22 d8 95 81 3f 36 7e 4c ce 4f c0 83 3f
       0.008586586513101369 0.00964414928745248
000070 36 7a 37 88 ee 65 93 bf c0 b5 13 d7 38 ec 7c 3f
       -0.018943526329048242 0.0070612163847107445
000080 8a 43 7e 65 c9 e0 83 3f 58 1b 74 4b 86 e4 74 bf
       0.009706090364291393 -0.005100750531034169
000090 97 1e e4 dc 0f 2f 82 3f 5a 2d 20 74 a5 75 80 3f
       0.008878826073228025 0.008036892515540007
0000a0 26 fe f4 b5 ed ca 71 bf 7f 81 89 36 57 55 69 bf
       -0.004343918378537681 -0.003092451417885111
0000b0 a2 e5 ba be 34 ab 6b bf b3 0d 70 e5 58 6e 80 3f
       -0.0033775358368443734 0.008022970678218088
0000c0 a7 16 82 66 24 75 67 3f 39 4e c4 39 f4 b0 93 bf
       0.0028634749360801517 -0.019229713464552687
0000d0 6d e9 c0 dc b9 a3 82 bf 47 7a 93 92 1e 45 90 bf
       -0.009101345109333104 -0.015888669678014968
0000e0 85 4a 99 69 75 42 81 3f c9 f2 67 a3 1e ba 8a 3f
       0.008427541051024843 0.01305030761886296
0000f0 ca 5b db e1 2f 80 7c bf 58 cb 8b 9b 7c be 7e 3f
       -0.006958186187794044 0.007505881069607444
000100 b5 4b 15 55 83 d4 91 bf 3d 70 c9 b7 c5 45 84 bf
       -0.01741223532492216 -0.009898705168943528
000110 42 40 27 54 26 03 84 3f d6 5f b8 3b e2 b5 7c 3f
       0.009771632617145202 0.007009395335920451
000120 5f 88 23 80 21 6f 92 3f 0f 00 ea 9b 6f 2d 82 3f
       0.01800205559346357 0.008875724740619288
000130 9a 8a 8e 83 7a 15 8d bf 40 ac ff c9 8f be 8a 3f
       -0.01420112337092876 0.013058780052196295
000140 a1 e4 21 94 ce f9 73 bf 9d 0e ca 66 64 12 6f bf
       -0.004876906345196692 -0.0037929497687530637
000150 c2 76 d3 5b 1d 75 75 bf 31 80 2a 44 05 50 82 3f
       -0.005238642389682803 0.008941689627420231
000160 16 67 fe 3e 0a 66 85 bf 76 3b e5 74 37 eb 81 3f
       -0.010448532149712569 0.008749421362748793
000170 a4 64 f4 77 09 a7 5c 3f dc 93 76 50 5f 00 73 bf
       0.0017488090960056457 -0.004639026948471927
000180 d9 0d 03 d3 33 69 80 3f e8 9b 34 c0 51 1b 85 bf
       0.008013157727311192 -0.010306013754030688
000190 6e f2 0a 44 43 ea 61 bf 0d 33 b4 01 5c 5b 82 3f
       -0.0021869004998207797 0.008963316728590987
0001a0 55 9c 25 26 98 da 7a 3f b6 c2 dc c7 02 f0 87 3f
       0.006556124050212627 0.011688253139796028
0001b0 9b 89 78 c8 50 2a 85 3f d1 2d 68 54 a7 0b 6d bf
       0.0103346167734955 -0.00354559594712154
0001c0 cc 2a 0d b7 bb 9c 10 3f 4e 90 76 87 fa 02 86 bf
       6.337066384990846e-05 -0.010747868784911099
0001d0 5e 8d 3f d2 98 72 92 3f 06 eb 10 1c aa bc 66 3f
       0.018015277702841608 0.00277550911462521
0001e0 29 a4 79 d2 77 bc 8e bf d0 69 76 18 2a e1 85 3f
       -0.015007911787693189 0.010683373328721851
0001f0 31 1b 5b f8 6c 62 59 bf 00 f4 2b 48 50 df 62 bf
       -0.001549345413353453 -0.0023037498480094065
000200 91 94 21 b8 e5 95 91 bf 7a f1 c6 f2 19 1c 85 3f
       -0.01717337547633641 0.010307505341977875
000210 a1 66 4b ae d5 3d 7b bf b8 e7 ad 40 72 98 79 3f
       -0.006650767031453648 0.006248899745395713
000220 26 8c 04 20 4f b8 53 bf 21 61 a8 86 73 32 7e bf
       -0.0012036106782680272 -0.0073723328337325375
000230 fb 9c 0e 87 ee 6f 91 3f b6 6e fe 74 32 2f 83 3f
       0.017028548234205392 0.009367365069741989
000240 4d e7 ce c6 7f e0 7d 3f 4a 8a f3 7b f3 3d 68 bf
       0.007294177176783223 -0.002959228091286269
000250 a9 71 89 18 a8 c7 88 3f 3a e7 c1 22 8b 42 74 3f
       0.012099564789587474 0.004946273326021539
000260 7b 94 26 72 0c f1 92 bf 7c 66 53 9c b0 2a 50 3f
       -0.018497652499395372 0.0009867405618052818
000270 c8 15 ba 67 09 08 89 3f f7 b6 f2 d6 8c 7e 90 3f
       0.012222360113137834 0.01610775052966226
000280 ce cf f2 11 86 39 8a 3f 26 c9 4b 0e 0a d8 3a bf
       0.012805030272239917 -0.00040960546020509176
000290 82 c5 fd 41 b2 12 6f 3f 11 d9 58 e5 d9 8a 79 3f
       0.0037930947873340845 0.006235934406097835
0002a0 c6 1b f6 43 71 1f 72 3f eb 9b 85 f9 65 1b 70 bf
       0.004424517100580288 -0.003932379091884801
0002b0 34 63 98 49 0b 44 8b 3f 45 9c 25 78 e4 e5 90 3f
       0.013313377555321894 0.016501970132051253
0002c0 83 14 2e a9 a6 d8 5b 3f 52 f3 c0 fb a9 45 83 3f
       0.00169960284685658 0.009410217280782316
0002d0 93 15 cb 7e d8 34 61 3f 0a a1 fe ae 78 ca 81 3f
       0.002100394098621458 0.008686964836514228
0002e0 bd 82 d9 00 ea 96 64 bf ef 8c a1 5d 44 a5 79 3f
       -0.0025133676888774146 0.006261126569458527
0002f0 83 b6 e4 79 34 23 8e 3f 08 cf 23 4f 50 1f 73 bf
       0.014715585679904613 -0.004668534953669264
000300 2f e9 8b 91 6c da 74 bf bb cd 0e d3 9d 6b 85 3f
       -0.005091117950309517 0.01045916843745586
000310 cd fd da 24 65 8b 8d 3f bd c2 5e d3 a2 a5 8f 3f
       0.014426031291235564 0.015452644420152034
000320 a6 8d df 45 1a 04 60 bf 16 37 64 48 f6 c4 88 3f
       -0.0019550812858015352 0.012094425281727033
000330 e4 30 0b 01 2b 3d 7f 3f 07 57 39 94 33 9f 5e bf
       0.007626693710971664 -0.001869011278264167
000340 52 95 b8 3f ed 13 88 3f 28 3d 21 db 3b dc 90 bf
       0.011756757266150917 -0.016465125321983326
000350 93 83 94 bb a7 34 7b bf 56 75 78 14 fa b7 91 bf
       -0.006642012792583157 -0.01730337858145011
000360 20 be 5d 82 6d 83 80 bf 5a 97 33 3d 7c 9e 8a 3f
       -0.00806317857833877 0.012997599237177294
000370 7c 66 b2 23 4c 4f 74 3f 33 95 3a 68 0d 9c 76 bf
       0.0049584364125166945 -0.005519916888862486
000380 0d 07 22 9c 2d 4c 67 bf f5 59 6a 72 2d ca 84 bf
       -0.0028439417665716616 -0.010151248029882412
000390 22 b2 00 f9 df 85 92 bf db 15 bf 68 0e c3 97 bf
       -0.018088817189140134 -0.023205018180098107
0003a0 35 2e e9 19 cb ef 8b bf 68 3d 0c bf 9b 34 73 3f
       -0.013640963295208678 0.004688843139560951
0003b0 c2 b7 95 a8 82 18 91 bf 49 87 b3 36 e5 55 8f 3f
       -0.01669506219825912 0.015300551158762625
0003c0 89 8e 43 c0 1b 74 70 bf b3 c3 bc 51 28 71 56 bf
       -0.0040169796013490655 -0.0013697522872002487
0003d0 f8 06 88 53 13 1b 79 3f d0 fe 44 83 30 9b 85 3f
       0.006129336827599856 0.010549906736400244
0003e0 e2 b4 4c e7 30 81 90 bf 8b 9f 45 b7 45 7e 93 3f
       -0.016117824666413656 0.01903637820342356
0003f0 4c 1a 59 ef fd c0 81 bf 57 9d eb 9b 2f 77 74 bf
       -0.008668884150336308 -0.004996477101236372
000400 56 eb 0d 03 41 69 84 bf 39 1c 3d a3 00 61 6f bf
       -0.009966380983078043 -0.003830434079563652
000410 74 d5 3f 3b 3a 60 7b 3f 44 29 ea 74 72 c9 7a bf
       0.006683566538403841 -0.00653977117202437
000420 93 63 9e 5e 10 81 8c 3f 59 fc 97 ad 6d d0 8e bf
       0.013918044936689166 -0.015045983181151511
000430 8f 15 af e5 68 68 8f 3f 62 0a cf d5 e4 3f 8e bf
       0.015335864552876525 -0.01477030541889696
000440 20 92 1e c3 58 88 76 3f 44 e9 8f a4 ba 22 79 3f
       0.005501124121938733 0.006136635850447828
000450 4a 45 f8 67 f3 6e 91 bf ea c5 86 b4 9c 2a 8f 3f
       -0.01702480623322814 0.015217994937162655
000460 ba d7 70 4b 61 b5 80 3f 9c e3 49 4a 83 b4 75 3f
       0.008158455004472976 0.005299103596024059
000470 98 22 12 44 cc 20 86 bf d8 f3 b5 3d 58 18 82 3f
       -0.01080474455581397 0.008835496314299293
000480 9d 3b 0e 7f 8c d8 76 3f c5 68 88 3d 5d ad 74 bf
       0.005577610791887813 -0.005048145504156836
000490 22 30 29 f6 66 da 75 bf ba 6b 4d 81 21 ed 8c 3f
       -0.00533523768769942 0.014124166258332117
0004a0 78 87 bb 9e cb 74 7e 3f 70 46 25 a6 ba 54 00 3f
       0.007435603514496118 3.1148859096175106e-05
0004b0 ee ad 31 31 6c 30 8c bf 28 20 c7 6e 36 32 72 3f
       -0.013764233828815055 0.004442417743526085
0004c0 f2 f3 16 23 b2 43 7f 3f 0e 38 ee d5 b3 e7 83 3f
       0.0076329191664941 0.009719281164304785
0004d0 c7 08 8e 73 02 11 95 bf 83 68 60 78 5a df 63 3f
       -0.020572698882013876 0.0024258391376977286
0004e0 0b 54 55 47 02 1b 77 3f b5 30 0b 31 53 8a 8f 3f
       0.005640992070159899 0.015400552686877548
0004f0 f2 25 41 25 91 3e 6e bf e5 ac e5 0a a1 be 8a bf
       -0.003691943633417288 -0.01305890860085985
000500 41 59 de 4d 51 71 85 bf 7e f7 8a 80 67 4d 79 bf
       -0.010470042408809223 -0.006177334122808518
000510 d5 3d 65 c5 8f e7 44 bf 77 c3 e6 f0 23 aa 87 bf
       -0.0006379558570105923 -0.011554985799053103
000520 84 44 60 44 df c2 79 bf d3 86 65 1e b6 75 81 bf
       -0.006289360177121787 -0.008525297930364861
000530 f0 67 0f 1f dc 33 88 bf b1 52 12 e8 a0 e8 69 bf
       -0.011817664811974965 -0.00316268374496994
000540 e6 ff 81 0d bb 78 65 3f f0 5e 0e 2f fa fe 5e 3f
       0.002621045434409541 0.0018918460084246767
000550 73 7a 58 7b a3 37 86 3f f7 c3 65 cd ac 16 73 3f
       0.010848309709271952 0.004660296448819593
000560 8c a5 c2 ba 3f a3 66 bf 80 a3 45 01 ea 50 7f bf
       -0.002763390037291818 -0.0076455250567527555
000570 28 9b 58 c9 ce 4d 74 bf 01 fc 1e 2b 5a 7a 8e bf
       -0.004957015762136398 -0.014881805840444075
000580 4a 58 23 f1 27 cf 78 3f 44 2d 97 d4 42 66 92 bf
       0.006056934378838428 -0.017968219972130287
000590 5a c3 19 8d 95 d8 73 3f 1e c7 50 89 37 99 7d 3f
       0.00484522264888273 0.007226197184580644
0005a0 0f bd d6 b7 cf 82 7a 3f f9 26 bb 1c 1a c8 86 3f
       0.006472407721431552 0.011123851777842019
0005b0 74 5d 0e 31 c7 9b 92 bf 1f 9a 3a 23 ac 74 71 bf
       -0.01817237126269107 -0.0042616581082826335
0005c0 f0 3a ab 1d 90 55 70 3f b5 59 85 59 e3 4e 86 bf
       0.003987849190436363 -0.010892654580555975
0005d0 64 3b a5 c4 fc 34 87 bf db c0 52 ae 7b bc 78 3f
       -0.011331534148352147 0.006039126518928318
0005e0 f4 ba a1 2b 51 71 8b bf f1 02 1b c7 72 5a 4d 3f
       -0.013399728912387478 0.0008957920492421429
0005f0 c4 39 71 ee 81 83 91 3f af f5 1d 09 cb 47 8b 3f
       0.01710322397075871 0.013320528236131361
000600 ec 11 d9 cd 47 45 88 3f 3d b7 57 d7 a1 6e 90 bf
       0.01185089203784969 -0.016047028320762314
000610 2c 9e 04 47 a6 8a 94 bf 55 88 da 80 dd df 77 bf
       -0.020060155949208333 -0.00582872891178184
000620 19 0f d7 7d 75 16 6e 3f 3d 56 77 f5 af 74 82 3f
       0.0036728186375699742 0.009011625937016205
000630 65 23 4e 18 45 9e 8c 3f 1c 2c af 62 8e 3e 7f 3f
       0.013973750881420785 0.007628017609884654
000640 f5 18 9b 0b b8 16 5f bf a7 26 10 ad 73 a8 81 3f
       -0.0018975064580657984 0.00862207767387997
000650 c8 66 21 36 d0 8d 8a 3f 71 0f 71 8e e2 49 45 3f
       0.012965799953394877 0.0006496769173129758
000660 d0 74 a7 82 f9 11 80 3f 3f 78 fb 92 a1 20 82 bf
       0.007846783923861983 -0.008851301477474148
000670 a0 68 e2 c5 67 23 90 3f 05 2e a8 d2 4b b9 7e 3f
       0.015760060742288418 0.007500930960769652
000680 91 0e bf ba e9 15 7b 3f cc 37 13 9c e7 e0 83 3f
       0.006612694745800633 0.00970631547025027
000690 3a 44 3b f4 0d 80 7a bf ac b0 26 ff 1d bf 8c 3f
       -0.006469778545310107 0.014036402081579823
0006a0 3c d0 02 7c c5 a0 83 bf 8a 08 5b b8 2c 15 72 bf
       -0.009583990904822419 -0.004414725006144713
0006b0 21 aa a4 90 5b 08 85 bf 0e 50 eb ac 33 39 6d 3f
       -0.0102698472515686 0.003567315033572888
0006c0 09 dd ec 22 09 f2 80 3f 3d c7 79 11 9c 90 7b bf
       0.008274146440824486 -0.006729707376153912
0006d0 4e 4c 99 fc 59 bb 84 3f ae b4 28 93 94 8c 72 bf
       0.010122969647602311 -0.004528599138706442
0006e0 17 75 43 e5 3d 30 91 bf c4 f7 37 6a e5 9b 8e 3f
       -0.016785590284475207 0.014945785812411468
0006f0 3a 2f fd a2 ee 13 60 bf fb 11 54 5b 3a 12 64 3f
       -0.0019626294014524455 0.0024500980167678744
000700 0f 9f 00 56 a7 e7 87 3f 09 0e 20 33 50 69 8f 3f
       0.01167231303413943 0.015337587890832631
000710 0b 4d de 54 f3 68 3a 3f d3 10 7f cd f5 30 74 3f
       0.0004029840537153751 0.004929504553676095
000720 9b 84 76 03 b0 8e 81 bf 1b da 85 9f b4 84 7d 3f
       -0.00857293615882986 0.007206636008382473
000730 2f 8d 86 2a ff 87 86 bf 66 29 55 8c c6 03 8c bf
       -0.011001580701139517 -0.013679076345074658
000740 2e 47 67 21 99 55 88 3f 08 32 9d 68 c2 08 82 3f
       0.011882015544788151 0.008805769746367723
000750 cc 0c 2f 3b 03 17 88 3f d1 4e 76 91 a2 bb 60 bf
       0.01176264309277144 -0.002042596355474526
000760 b2 dc a1 a6 bb 3f 5b bf 26 55 4f 8c 99 ea 81 bf
       -0.0016631443527595322 -0.008748244852464792
000770 a4 9d 51 7a 47 0f 7e bf d3 30 7b 82 18 4d 73 3f
       -0.007338790140330263 0.004712196103082006
000780 8d fd f6 55 e1 94 73 bf 42 3a 37 8b a3 3e 7e bf
       -0.004780655115097854 -0.007383955805791377
000790 0e df 52 30 41 fb 91 3f 7e fe 10 a6 ae 6c 82 3f
       0.017560022901959953 0.008996357386535477
0007a0 e3 5f ec 3c bb b3 6d 3f 53 d8 0b 75 c4 b6 7a 3f
       0.0036257416717368914 0.006521956835731829
0007b0 bb e4 1f a6 a7 59 8d 3f c0 7b 5b 33 b9 ec 88 bf
       0.014331159360141723 -0.012170264129449992
0007c0 92 12 c4 39 f2 5e 7e 3f 2c bd 54 cd 22 39 80 3f
       0.007414766496599017 0.007921478167729555
0007d0 dc 10 93 57 a8 9d 56 bf 18 f8 55 12 37 bb 84 3f
       -0.0013803619352055685 0.010122709509911273
0007e0 4a f6 4d 48 12 42 6a bf 37 60 5d e0 dd ab 8b 3f
       -0.003205333431138856 0.013511403474396484
0007f0 19 e8 5f 14 84 cf 40 bf 3b e6 26 3d 83 7c 46 bf
       -0.000513019077288182 -0.0006862297835176842
