recordvalue2.pth (torch, 559866 bytes, 6 tensors)

network.0.weight f8 [256, 13]
0	0x3fc9c7b0806229e3	0.2014065386650393
1	0xbfac6358f982da4c	-0.05544546170988393
2	0x3fc6a9f3be0602fc	0.17706152704706557
3	0x3fba9ebccabb6069	0.10398464154730082
4	0x3fb4848565e42c05	0.08014711129742132
5	0x3fd03f72349ef7d4	0.25387244356886396
6	0xbfce23713bf597cb	-0.23545661380484115
7	0x3fb3febab781062b	0.07810561161115774
8	0x3f84c71b7cf1b28b	0.010145392179958598
9	0xbfd151c50ef53435	-0.27061583004689577
10	0xbfbbf8747c2a5735	-0.10925987273580236
11	0x3fc87db8a9e5b6b5	0.19133671088950668
12	0x3fc39b70f55f5087	0.15318119031019625
13	0xbfcd78f63350292d	-0.23025395875476687
14	0xbf9705a121810150	-0.022482412023465514
15	0x3fd672da82b6945a	0.3507601047988992
16	0x3fd32d2fa2f9b6d0	0.2996329394871795
17	0xbfa60a5803b85a76	-0.043047666982762786
18	0x3fd1655ddffb31ca	0.2718119323078808
19	0xbfc6ae17b84081b1	-0.17718788620642337
20	0xbfade51f288375c3	-0.05838868493604423
21	0x3fb9090efe5f5347	0.0977944727922707
22	0xbfc320ee9217f5d6	-0.14944250234104456
23	0xbfce7d06230184ee	-0.23819042882227087
24	0x3fcbcad3e7078bc5	0.21712731152282863
25	0xbfd105e65e0c60b1	-0.2659850996437952
26	0x3fb63e3549f3850d	0.08688672118616499
27	0xbfc884aa6a4aa9b4	-0.19154863538763112
28	0x3fd736b2b2b8aaf7	0.362713503391816
29	0x3fd34a9ba6ce64ce	0.3014287117926643
30	0x3fc0c60763d31280	0.1310433614181825
31	0xbf85c5350793a4b7	-0.010630049031947626
32	0x3fc0b7c4b7ecc1d4	0.13060816746430126
33	0x3fa4c6eae02b9625	0.040580119957479156
34	0x3fc1076d052a1bec	0.13303911926433842
35	0x3fd10472700ae4d6	0.2658964246907777
36	0x3fb989ec91ec9044	0.0997608047733261
37	0x3fb76b2045a37485	0.09147836399229632
38	0x3fb88f8e4c09e936	0.09594048839963851
39	0xbfb796da6dd4cec4	-0.09214558774402365
40	0xbfa992d43ba678d5	-0.04994834163811538
41	0x3faafe953a7147d0	0.05272356356057595
42	0xbfcc0eda28e3d3d9	-0.21920325275973943
43	0x3fd5b85f3ca0618c	0.33937817497783196
44	0xbfc0e70b5c37e3ab	-0.1320509147915606
45	0xbfc876a0edc5a5b9	-0.19112025842632166
46	0xbfa11eb79b2f6a92	-0.033437478726871764
47	0xbfb52d5ed851397b	-0.0827235487097137
48	0xbfd4ddacb1f5b1b0	-0.3260299432647811
49	0x3fc33579f3a6faf3	0.1500694694240888
50	0x3fcf302fbb186d23	0.24365803370970082
51	0xbfc776629f79414f	-0.18330033098983242
52	0xbfccc3a0f10eb081	-0.22472011347179335
53	0xbfba34d801893d8c	-0.10236883199217156
54	0xbfa90fd15d902002	-0.048948805495513184
55	0x3fcfdff5c809f885	0.24902221934820915
56	0xbfa9929a9aafb7ef	-0.049946624167077285
57	0x3fcbc4627aa80295	0.2169306849391616
58	0x3f9f11f1bcac3d68	0.030341889515566406
59	0x3f85577e826d1cfb	0.010420788150112595
60	0x3fbe9932aa65acc5	0.11952511463248346
61	0x3fd9719c5aab9b43	0.39755925039792234
62	0xbfb24b60e67b0be4	-0.07146268488854407
63	0xbfc864dd8bdd022a	-0.1905781681944217
64	0xbf9a86e87db54a61	-0.025905258820169034
65	0xbfc0dbdb821849a8	-0.13170951702393308
66	0xbfd14c30f2acf495	-0.270275341976068
67	0x3fd249361551600e	0.28571846086333685
68	0xbfbcf3817a5fab60	-0.1130906032337129
69	0x3fd0e4667403e404	0.26394044236764125
70	0x3fb712adc2588b76	0.09012876505634701
71	0x3fb4f584a85a6fc6	0.08187131033122261
72	0xbfce83c3b431b0dd	-0.2383961324552563
73	0x3fc6c24cc267c4fa	0.1778045605893011
74	0x3fb3a0eefd6777ab	0.07667440115571249
75	0xbfd82783162da053	-0.37741162458269634
76	0x3f9a1863684f6acd	0.025483659020987304
77	0xbfd0d6d69adfc923	-0.2631126892512318
78	0x3fcc4a3bf7b305be	0.22101544947331137
79	0x3fb523c678293715	0.08257713731401524
80	0x3fbd9c071baafff5	0.11566204476821425
81	0xbfc0118fb68678ca	-0.1255359307514879
82	0x3fba3298ee1aee4d	0.10233455479731753
83	0x3fcd3490594db3a0	0.22816662178538838
84	0x3f89cd4de7e5f449	0.012598618163560131
85	0xbfa846709a240a40	-0.047412413421643596
86	0xbfc66916ecf82a69	-0.17508207865496964
87	0xbfb57985564ba4fd	-0.08388551098655124
88	0xbfd07ca6cac3cf83	-0.2576081256986457
89	0x3fb20cbc849fdfc5	0.07050684202101738
90	0xbfc1f650457ab5f2	-0.1403293933157524
91	0x3fc20ad869604d9d	0.1409559740574026
92	0x3fa433f5e046e818	0.03945892679935542
93	0x3fd4523c56087771	0.3175192680517887
94	0x3fc111758bb7a713	0.13334531137598357
95	0xbfb2a8bb128f1414	-0.07288712695215366
96	0x3fb1a9ab30f0c616	0.06899518914067246
97	0xbfc39e545322c1a7	-0.15326932963718073
98	0xbfc8ce71314290a6	-0.1938001146819534
99	0xbfd3058bacf23daf	-0.2972134770324954
100	0xbfd5bf9973f9294f	-0.3398193008948924
101	0x3fb44209a3c7ee88	0.07913265465315977
102	0xbfc65a96f976eef1	-0.1746395795906817
103	0xbfca971baa511578	-0.2077364522576024
104	0x3fa90d37f6f8832d	0.0489289750078171
105	0xbfcc370b79795aff	-0.2204298346648201
106	0x3fd8a36fd2bdd4d7	0.3849753911993736
107	0x3fb4b0492cecd7f5	0.08081490847402491
108	0x3fc1ee1a76dea74b	0.14007883838831456
109	0x3fd1115eae70fca3	0.26668517146385734
110	0xbfc62a453f3f0f4e	-0.17316499317359518
111	0x3fc050d438c82b87	0.12746670506052402
112	0xbfa47059e8437d52	-0.039919671633237855
113	0x3fc1a35dcee9727b	0.13779804804916637
114	0x3fd786a169a9c627	0.36759219473524
115	0xbfc676ece713df8c	-0.17550431521499055
116	0xbfa86350897db771	-0.04763271025045313
117	0x3fd078c71caac79e	0.25737169074556643
118	0xbfc6e93d7c6b648b	-0.1789929254071335
119	0xbfa73eda3c56db7f	-0.0454014013916355
120	0xbfb97b24ce9b0543	-0.09953527492600238
121	0xbfceb616c3426073	-0.23993191274780976
122	0x3f703979d859f0ae	0.003961063344487465
123	0x3fc660396bffd1cd	0.17481153272059516
124	0x3fc2ef40e1abb1a3	0.14792643565250527
125	0x3fbbe7532ff6dd78	0.10899848862651662
126	0xbf8c02c8957383f8	-0.01367718416298834
127	0xbf8fd9cf7d2a3df9	-0.015552159316285051
128	0xbfd78d3996dd677e	-0.367994687394109
129	0xbfd7983ba2b792cc	-0.3686665619882603
130	0xbfcae5b502a4cb77	-0.21013510350311623
131	0xbfcf6e27b61b6056	-0.245549167556194
132	0xbfb73a2bc6404ace	-0.0907313689242912
133	0x3fbd5ddd95278585	0.11471352473701842
134	0xbfa380607f449917	-0.03808881333888985
135	0xbf8bbf36d1c75846	-0.013548305775582869
136	0xbfbfca641476427f	-0.12418199061927203
137	0x3fc7ef5dada0b85a	0.18699236848755413
138	0x3fbb5f4fc561895d	0.10692308968422055
139	0xbfc2f934c8a8bb0b	-0.14823016927535834
140	0x3fd83085aa338964	0.37796155568334755
141	0xbfb817fe8a40a034	-0.09411612391761609
142	0xbfa1b1d99fcfcf87	-0.034560013540526895
143	0x3fcc19ec3aba2d5a	0.21954110019246792
144	0xbfd0aeba4a9a4799	-0.2606645325223496
145	0x3faf70b5bdd568e0	0.06140678350739548
146	0x3fc2f2a33d0dac30	0.14802971345065563
147	0x3fb8ce9d3e53abc9	0.096902682987703
148	0xbfbebfbed61561cf	-0.12011330343864944
149	0xbfc2dbadb6946aec	-0.14732905783679173
150	0xbfc31215ee6b9b40	-0.14898943082445193
151	0x3f9fb28be07ee8e1	0.03095453794205916
152	0x3fa8ab4196778e11	0.04818158113246452
153	0xbfd097fb053c443e	-0.2592761565329659
154	0xbfc907c335f9638c	-0.19554939399202131
155	0x3f20cf4260b5ee12	0.00012824712062441173
156	0xbfb89d665a3eed0b	-0.09615173056856834
157	0xbfd3f183688369a4	-0.31161580282573653
158	0xbf959fee4c417803	-0.02111790028026662
159	0xbfc43a81dc517bc5	-0.15803550012330284
160	0xbfd2e66fcecae4e2	-0.295314742990355
161	0x3fd0c3912817e56c	0.2619364635025565
162	0xbfc4853508003725	-0.16031515970865332
163	0xbfc6529eefd51c5f	-0.17439638815469302
164	0xbfc02206547dbefd	-0.12603835225626617
165	0xbfcc23e92619673a	-0.21984590874017745
166	0x3fcb7b258870c82e	0.21469563638817263
167	0x3fb9ddc4c3e36da5	0.10104017050200882
168	0x3fb70d4686c37b85	0.09004631796004332
169	0xbf9b153cea845961	-0.02644820386293512
170	0x3fa7e9020d7436ba	0.046699585096673116
171	0x3fdaec2818cfb09d	0.4206638567254773
172	0x3fc4c7cba78fbca7	0.16234727555954473
173	0xbfc7f13ad78a6183	-0.18704925083580912
174	0xbf9c6cc330b2753b	-0.02775864586566466
175	0x3f8fbcdbd9a963d3	0.015496938304908092
176	0xbf808f59cda58663	-0.008085919941268565
177	0xbfc6457c790182e2	-0.17399555119029403
178	0x3fc8ff6e645153fd	0.19529514215778923
179	0xbfca04ada17fc979	-0.20326776872350275
180	0xbfcd83bafde11520	-0.23058259388395985
181	0xbfdb028033f8e260	-0.42202763629351203
182	0x3fa24820ccfa4ccc	0.035706543943115315
183	0xbfcf7ae4c0c05ee4	-0.24593791400615495
184	0x3fc174e1f9d1d6a2	0.1363794774840033
185	0x3fc7f79fbc10b47c	0.18724438364862184
186	0xbfd9c4eec1530f32	-0.40264481429425125
187	0xbf98eab26b974212	-0.02433279782946058
188	0xbfcea38fd7a8680b	-0.23936651258628702
189	0x3fa755e7520e6df4	0.045577267424245976
190	0x3fbde5a2458b54af	0.11678518483980115
191	0x3fc4ef8222e235b5	0.1635592146234736
192	0x3fbfaafc6d4f474c	0.12370278996175194
193	0x3fc42d01cd7fa19f	0.1576235059176385
194	0xbfd371c85cab6bb3	-0.30381974267737205
195	0x3fc0ac353b1b175c	0.13025536905314083
196	0xbfbbbc9d5f35ed3b	-0.10834678244093691
197	0xbfa932c570b72f79	-0.049215478905892014
198	0x3fd5e8350696124f	0.34229779856858483
199	0x3f82fa3ca7e1d902	0.009266351579054536
200	0x3faf67d46eb9bc38	0.061339033619212946
201	0x3fc141e4c8d33f1e	0.13482341581265528
202	0xbf3f509ec1322026	-0.00047782779547178784
203	0xbfd0623b0f2d3eec	-0.25599552614310883
204	0x3fd6b583ca614163	0.3548287845960855
205	0xbfd0b1d4523c5d15	-0.26085384398307215
206	0x3fcae1f6aa3d274b	0.21002085983701088
207	0xbfd9122e28eb6ffb	-0.391734638176558
208	0x3fc76e4c43358eb0	0.1830535247964824
209	0xbfd087eab908c3f9	-0.25829570836782484
210	0x3fcbce52a92f0554	0.21723397503778108
211	0x3fd2cae14740edce	0.2936328121029107
212	0x3fc1ee996ed9aca6	0.14009397423374031
213	0xbfc80ca053892f84	-0.18788532332325414
214	0x3fc2d48a9bce19fe	0.14711124999685404
215	0xbfca4a68e75314a2	-0.20539580626624337
216	0xbfbab348ebf24220	-0.10429816971214523
217	0x3fbc0ed5a14f7bce	0.10960135639423571
218	0xbfc70adb1e89e1cc	-0.18001879683630617
219	0x3fd18077373f600e	0.2734659232642124
220	0xbfd751e5c2448d21	-0.36437362643683185
221	0x3fce7571d5b2aa7c	0.2379591268011899
222	0xbfcd90e9fe5a68c2	-0.2309849254568857
223	0xbfb92b5554ff8281	-0.09831746411465227
224	0xbfbc8895a0452147	-0.11145911372034788
225	0x3fc3de94bb0ae0aa	0.15523013241705047
226	0xbfd2d0428c6743bf	-0.2939611788870557
227	0x3fae508dab0b7179	0.059208323602180486
228	0x3fd252f4f495388e	0.2863132847313715
229	0xbfc6d737ddc26169	-0.17844293907252087
230	0x3fada1128d3ab31c	0.057869510402588115
231	0xbfc3af806cd0c86b	-0.15379338563213038
232	0xbfd7d017dc835469	-0.3720760014960605
233	0x3fcd8b6fd5fddd44	0.23081777523814584
234	0x3fd2499937809139	0.28574209613931917
235	0xbfd4286fa802d04d	-0.3149680271847089
236	0x3fbfcf358dc0da7d	0.12425551138663056
237	0x3fd57ae5d2d10e07	0.33562608325539184
238	0xbfc9fb0b2abee5c7	-0.20297374331657478
239	0x3fcd5181a2d8b5c8	0.22904987765779894
240	0x3fb399fdd1593380	0.07656847344442319
241	0x3fa3b293f9046f73	0.03847181715738559
242	0xbfa0b83fb49dd18e	-0.03265570716658593
243	0x3fcff075eb1c1116	0.24952577571833306
244	0xbf9d069932c7de3a	-0.028345483517084193
245	0x3fb79fda5b9f5488	0.09228291260599708
246	0xbf89c68af8dcb852	-0.012585721702262163
247	0x3fcb334715f692c3	0.21250237057133434
248	0xbfc85cf7192e47a9	-0.19033707360773391
249	0x3fcef71b6148a9df	0.24191610574901198
250	0x3fd6e9b65ac69fff	0.3580146681292717
251	0x3fc31a4426b2ecf2	0.14923908128353208
252	0x3faf3b54e04b99ef	0.0609995387838359
253	0x3fc4747eb470da5b	0.15980514345729344
254	0x3fb2de352cac1d23	0.07370312061913302
255	0x3fc7d6520c481650	0.1862280425995544

network.0.bias f8 [256]
0	0x3fcf395e358c6701	0.2439382325617814
1	0x3fd492489baf458a	0.3214284439428289
2	0x3fc31a740ee096d6	0.1492447922366213
3	0xbfca78d925691e79	-0.20681299521151056
4	0x3fbb3984da9e8e51	0.10634641969095894
5	0xbfa68ae12fb18a5d	-0.04402831752010592
6	0x3fc4deb160e94a5d	0.16304604751583698
7	0x3fca76cb47f8094a	0.20675030721765558
8	0x3fbda59339c4d59d	0.11580772552846104
9	0x3fc2be03802788a3	0.14642375714817488
10	0x3fd53a5f8e2d4069	0.3316878212399446
11	0x3fda2e66f3e4ce5d	0.40908216302634576
12	0x3fcb8d1d5d5068d8	0.2152439790377858
13	0x3fd35d7d40a043db	0.30258113204132336
14	0xbfb425dbcd71caa5	-0.0787026764462931
15	0x3fc6df853d31a174	0.17869630325300145
16	0xbfb5795dbdc034db	-0.08388315088832902
17	0x3fdae5ff707f8219	0.42028795229092136
18	0x3fb879af47d60b3e	0.0956067610150457
19	0xbfa512c1365eea15	-0.04115871227937277
20	0xbfb0abadf2bc0097	-0.0651196210492365
21	0xbfa706cb4882b4ef	-0.04497370967997393
22	0x3fd455de255fcafc	0.3177409520132384
23	0xbfb07f7f006531b2	-0.06444543609285949
24	0xbf97c1a095c6560c	-0.02319956697609453
25	0x3fb3fe135f429c23	0.07809563708961824
26	0xbfbb214a59640635	-0.10597672159567469
27	0x3fad981de247ab45	0.057801183578553274
28	0x3fb40f26078b9597	0.07835614856920468
29	0x3fb8757880d14e97	0.09554246087037153
30	0x3fd04580ca768e7b	0.25424213191784134
31	0xbfb3bebe27dd070e	-0.07712925408580082
32	0xbface7376ceebe2c	-0.05645154194587251
33	0x3fb362c85e06d663	0.0757260541493792
34	0xbfbbf81743855fe0	-0.10925431631528637
35	0xbfab4d0675ecb794	-0.053322030921079705
36	0x3fd2c632d5278422	0.29334708038192236
37	0x3fb56de0031f72a2	0.08370781017533571
38	0x3fc248488b0e282b	0.14283091344651785
39	0xbf9fba5df7d832d5	-0.030984371425847385
40	0x3fa7bc6b841eb975	0.04635940540116482
41	0xbfbda1c74f458c0d	-0.11574979482024635
42	0xbf9ae5171012b4a0	-0.02626453433611131
43	0xbfaf0ed4abe7e2c3	-0.06066002462825317
44	0xbfbfe318d3649734	-0.12455897484741457
45	0x3fd91a8ce3641789	0.392245504437931
46	0xbfc1fc60fec07c5e	-0.1405144924073935
47	0xbf73c645b4f1fd0e	-0.004827759067779226
48	0x3fd4f265cdcf50bb	0.3272947797643259
49	0x3fd287155ea28670	0.2894948410194962
50	0x3fd303c2c4d0d127	0.29710454197199215
51	0xbfb3f9d8fef4f45f	-0.07803112244160236
52	0x3fd0b25d758fb18b	0.2608865402278517
53	0x3fd8f5491427c5e6	0.3899710366086694
54	0x3fcf75c5e1781d13	0.24578164586294146
55	0x3f7ff4f6723b8415	0.0078019739919179725
56	0x3fc70e4c1b1dcb1c	0.1801238186268045
57	0x3fd5a576250fb676	0.33822396868968185
58	0xbfc0cd8e58990f9e	-0.13127307249135084
59	0xbfb2bfa17c04e63f	-0.07323655393420213
60	0x3fc590279ce138df	0.16846175346513
61	0x3fd5c8d062a0230f	0.34038171416664026
62	0x3fd7547bb6d9441e	0.3645314489013475
63	0x3fcbf7d2aab2fd47	0.21850045523567926
64	0xbfbd708e741ab5f9	-0.11499872526720613
65	0xbfa5f371b3b3f0a3	-0.0428729564536934
66	0x3fd1c68bc9533dc3	0.27774328861866254
67	0x3fd4383e4881abdb	0.31593281822887115
68	0x3fcc2f008257cbda	0.22018438686754288
69	0x3fd7528f07d47063	0.36441398396141816
70	0x3fc66eaf6c4f42a8	0.1752528456550142
71	0xbfb81d60527ce0a7	-0.09419824613439919
72	0x3fc36998d12d7305	0.15166006292101755
73	0x3fc0d0841e3f7204	0.13136340596146578
74	0x3fd3d673db05a24a	0.3099641455542367
75	0x3fc770436899f0ad	0.18311350448118927
76	0x3fc7de915de8a7d1	0.18647973142043253
77	0x3fb11faa56f2ac1d	0.06688942549469386
78	0x3fd819f8be0fb5e5	0.3765851837223109
79	0xbfb4245066059ced	-0.07867910853166267
80	0xbfc0e80473b2752f	-0.132080608837819
81	0x3fb1501b233a55fc	0.06762857065253763
82	0x3fc4d7dcd14eaa65	0.16283760280687712
83	0x3fd8409ec9e873f2	0.3789441081769943
84	0x3fd23c1314e47b08	0.28491665878566197
85	0x3fc4944e583b80a3	0.16077594097351264
86	0x3fd9d6a6c756fbae	0.40372628657126597
87	0x3fceb37af33e0fee	0.23985230328628354
88	0x3fc3e87ad6b3a6b0	0.15553222163662417
89	0x3fc0c043084bd42a	0.13086736588562192
90	0x3fcc10c499c2b12e	0.2192617178710718
91	0x3fa47b2f3224c8ff	0.04000232207399001
92	0x3fc004076864618c	0.1251229533888928
93	0xbf96ea34882061d4	-0.02237779694414306
94	0x3fd381c5ef57450c	0.3047957265199137
95	0xbfb2ae8f5edfb16c	-0.07297607485060603
96	0xbfc1c984005fedc7	-0.1389622690038392
97	0x3fc34f17c35fd5ae	0.15085122146380797
98	0x3fdb7145435bb3c3	0.42878848627043115
99	0xbfadde02a09e56fb	-0.05833442888903836
100	0xbf7d8e65274fa27e	-0.007215876704301237
101	0x3fd35f99fed994aa	0.30271005523384054
102	0x3fc3facf5ddbfef0	0.15609161456085685
103	0x3fd6965315675a0a	0.35292508211333085
104	0xbfa3715362c0ea8b	-0.03797398167121909
105	0x3fc09b74fa7a0728	0.12974416952425227
106	0x3fc3c94cbe875984	0.15458068183097506
107	0xbf844f913853e6f9	-0.009917387515531827
108	0x3fc3d04f9b6d377d	0.15479464616003816
109	0x3fc685a9a0cbc27a	0.17595405913700174
110	0x3fb01f790aba420b	0.0629802371206624
111	0xbfc9be48a939226b	-0.20111950171328216
112	0x3fca47ec6a9aeb3f	0.20531993108110133
113	0x3fd6e989c7730495	0.35800404050321194
114	0x3fd1eabf9b5e521d	0.27995290920924437
115	0x3fc3ddd52023d1ad	0.15520729131061498
116	0x3fd9456ffeb9fcfe	0.39486312747608554
117	0xbfa09a6ea1260780	-0.03242822377343568
118	0x3fc9c4b7d380477f	0.20131585910035807
119	0xbfc284230ce479b4	-0.14465749864116406
120	0x3fc7494ec91c9610	0.18192467517762667
121	0x3fbf8ea66320053f	0.1232704154972639
122	0xbfc01fdc83580a43	-0.1259723321273488
123	0xbfbed85bd9142e34	-0.12048887300277827
124	0xbf658e24b93a48d2	-0.0026312558418989185
125	0x3fbcfce0ef53e8d2	0.11323362200701872
126	0xbfc392fa8e8d11f1	-0.15292293510914548
127	0x3fc1b42be7f71d95	0.13831089807920863
128	0x3fbea001ade901c4	0.11962900634626467
129	0x3fd0bb3b01564879	0.26142764216013564
130	0x3fcd1f93f8a204b4	0.22752618446614792
131	0xbfbc4509c37a2e56	-0.11042843840021396
132	0xbfb1d49376fad01c	-0.06964990286616096
133	0x3fd2a7311655a3ad	0.2914545744047768
134	0x3fc0bcc496d3b120	0.13076073994251036
135	0x3fc21acb2a991c06	0.14144267635330737
136	0x3fd5f1e4b768c97a	0.34288900290552926
137	0xbfa4c856a1f31df4	-0.04059096075939897
138	0xbfc374b5b334c621	-0.15199919939327436
139	0x3fa7fba48b4c9f81	0.0468417568247892
140	0x3fd4185bdfd5cb95	0.31398674830341494
141	0xbfa6d68e1d2ee990	-0.044605675756844154
142	0xbfb32cc40552daea	-0.0749018204686355
143	0x3fd0e2ee99fa5417	0.2638508323373698
144	0x3fb42e055b3b286e	0.07882722356149127
145	0x3fd7284b6d3700ce	0.3618343893576935
146	0xbfbba1cea4471688	-0.10793773184476596
147	0x3fd188f3f4de5470	0.2739839450162611
148	0xbfc7399f8b4a10e2	-0.18144602109180769
149	0xbf92c6d25c3d4517	-0.01833656967148042
150	0x3fd0306bdf5812a2	0.25295540629330493
151	0x3fd7785bb0dc0c54	0.3667210795540019
152	0x3fd6beada763d109	0.355388081995685
153	0x3fd51e4ecdbacee1	0.3299748429374017
154	0x3fa56b62360607c1	0.04183489713160738
155	0xbfbf8323bf31c1ef	-0.12309478204566181
156	0xbfafcb9c32952d30	-0.062100297140739946
157	0x3f9bb4843c34c239	0.027055803465545678
158	0xbfa710e3e4996882	-0.04505073705213737
159	0x3fd70b955e6392ea	0.3600819989936058
160	0x3fc834462c0daae9	0.18909527922672645
161	0xbfcc05e6575a45a1	-0.21893004670395746
162	0x3fa192bbead9643e	0.03432261697589255
163	0x3fa55b77bd873084	0.041713468442680784
164	0x3fd427db6939c8cd	0.3149326827616619
165	0x3fd92073cf63ed38	0.3926057362839006
166	0x3f8fe2fb3979d04b	0.015569651309512397
167	0x3fd0196dc2de299a	0.25155204801617403
168	0x3fc29b6759bfb7d5	0.14536754495878648
169	0x3f9ed3cc12935e98	0.030104817041176263
170	0x3fd170d220153851	0.2725110352811316
171	0x3fb8586669715194	0.0950988776615474
172	0x3fbb4f944aaf9a80	0.10668303321254236
173	0x3fb7d0043ee91da4	0.09301783119109658
174	0x3fd275728f894ddc	0.2884184266779053
175	0x3fcd55134d27976e	0.22915879504506215
176	0xbfaf37504994a0f8	-0.060968884450916805
177	0x3fd884f693c3fcba	0.3831154292128748
178	0xbfbd676a2948494c	-0.1148592329775841
179	0x3fb3eecdf6898016	0.07786261815044812
180	0x3fc710d9d3e13499	0.18020174833001049
181	0x3fb99c70bf9b6ccb	0.10004334142597597
182	0xbfac4fbbd35f55c2	-0.05529581980924149
183	0xbfac3da93243d033	-0.05515793551049377
184	0x3fcfa5eb363e2772	0.24725093983243657
185	0x3fc3b948f260dc6f	0.15409194788819344
186	0xbfc16c37bbdb40c2	-0.13611504242590483
187	0xbf9327c97dfb65ad	-0.01870646315987805
188	0x3fd6fbef4a5f2dc5	0.3591268755232842
189	0x3fca3547f8920825	0.20475101124981268
190	0x3fccc0570abe24ad	0.22461975121067237
191	0x3fd135ea5aa22371	0.2689157376376477
192	0x3fbfe928a5090488	0.12465147046261127
193	0xbfc4422a46834123	-0.15826919978145168
194	0x3fc047158cf4e7bb	0.12716931708001575
195	0x3fa5d6078f25934f	0.04264854071042256
196	0x3fc3b41bc8080c0e	0.1539339758602129
197	0x3f6f48028fa8837e	0.003818516733432308
198	0x3fc971e8d40f46e3	0.1987887416312822
199	0xbfae5d7e25f31a2b	-0.0593070432019441
200	0x3fbf989d97d47993	0.12342247921740172
201	0x3fca34bc891e1bde	0.2047343892592996
202	0x3fd41a231addf57c	0.31409528373463735
203	0x3fa5671407e8f274	0.041802049604005825
204	0x3fc53c5c35349261	0.16590454671781443
205	0x3fcf8662596d9be0	0.24628857962235795
206	0x3fca3b742b10b1ae	0.20493938544076457
207	0x3fd13a9080fa3ead	0.26919949145756555
208	0x3fc2c031da4773c0	0.14649031789931932
209	0x3fd877efe1cfd029	0.3823203759377543
210	0x3fc75a7b77dc7807	0.18244880058858845
211	0x3fa5ef1bf86bb54a	0.04283988387565303
212	0x3fd51f8afcf02cb6	0.3300502271747051
213	0x3fb27c99c9fc1c68	0.0722137563826536
214	0x3fd715d95e600f09	0.3607085630066967
215	0x3fd55a709b54a2e9	0.33364501160626375
216	0x3fcdc5c4b386dae6	0.23259791151004733
217	0x3fcaeb9b3f059d13	0.2103151376461275
218	0x3fb7e9a432c61c92	0.0934088348350193
219	0x3fc371c241d7b2e1	0.15190914359063526
220	0x3fb5b8ccdab84e39	0.08485107745973942
221	0x3fceecb750ee3e74	0.241599001423754
222	0xbf727ed7fcf98d41	-0.00451549883254937
223	0x3fd10328cf0d37ef	0.2658178350437756
224	0x3fd98028642acdae	0.3984471300311395
225	0x3fd0434b3685a4d5	0.25410728763979523
226	0x3fdc145de1424302	0.4387430858414946
227	0xbfa5449bec752c5d	-0.04153907071539529
228	0x3fb63c2c139de6e9	0.08685565451551337
229	0x3fd3c5735c34b263	0.30892642979123347
230	0xbfc5a3f43a6d746d	-0.16906597950847715
231	0x3fc9d6bd62dac8c8	0.20186583830724758
232	0x3fbfb6c74268fd91	0.12388272639599608
233	0x3fd306a1f932e821	0.2972798284132541
234	0x3fd97c665fa46e9d	0.3982177671439134
235	0x3fd7d9f2cf2699c0	0.37267751912659364
236	0x3fa5161253f9e314	0.04118401789759765
237	0x3fd1d28665184be1	0.27847442505406944
238	0xbfc7add3eeb39b00	-0.18499230532980704
239	0x3fd28386b083475c	0.28927771794871204
240	0xbfc1c9827d2f361a	-0.13896208870430443
241	0x3fc989713a66cd39	0.19950690604819402
242	0xbfc014a48e346106	-0.12562996810516597
243	0x3fd34e7b929ac497	0.30166520420886783
244	0x3fda75389e7e03ad	0.41340461232908404
245	0x3fcc9d4ed7b3dee0	0.22355065853456946
246	0x3fd8a6b687081766	0.3851753538768804
247	0x3fdbb5338944459b	0.4329346504683486
248	0x3fac2286205d4c6d	0.05495089669298001
249	0x3fccf70f1f6639cb	0.22628964455766573
250	0x3f5251bdd77bc649	0.0011181215212982146
251	0xbfb3eb010658e67a	-0.07780462651217049
252	0x3fc50c8d3db3a7cd	0.16444554817945659
253	0xbf685a08d2e96b65	-0.0029726192799847556
254	0x3fc71442bfcdee8e	0.1803058086915041
255	0xbfc5381c7fff96fd	-0.16577488183900604

network.2.weight f8 [256, 256]
0	0x3f847c079fe35adc	0.010002193037889233
1	0xbf7db1ff0994444b	-0.007249828567425241
2	0x3fa3c43a85a29801	0.03860648042000037
3	0xbf9b448696f329fa	-0.0266285924561007
4	0xbf9c1cbbb9d4e011	-0.02745335885740025
5	0xbf9e27f6c93ea748	-0.02944932559299865
6	0x3fa75e45891c5bed	0.04564111040797756
7	0xbfa6494d56864811	-0.04352800065238694
8	0x3fa34a1e3ac1a07e	0.03767485110512413
9	0x3f66555ab22d395d	0.0027262469679164973
10	0x3fac03d476765711	0.054716720066762765
11	0xbf75c06122387cd9	-0.005310420444885022
12	0xbf7c041f0b7df7f2	-0.006839867848496427
13	0xbf9ca1d7f4d85961	-0.027961134261283663
14	0xbfaf3c8ce3e5401a	-0.06100883752753834
15	0xbfa4af68c4760eb9	-0.04040076635558649
16	0xbfab332c6ef8c997	-0.05312479834209965
17	0x3f7c915fcb71b67b	0.006974577138959877
18	0x3f91af5a5ded7077	0.017270481093291736
19	0xbfad6000c690d330	-0.057373069991092485
20	0xbf93d0c5b8e2ebc7	-0.01935109082181066
21	0x3f6ab8702ae323ba	0.003261775090412003
22	0xbfa9959ce6a7b0c8	-0.049969580799229585
23	0xbfab9b93b9096745	-0.05392133363484545
24	0xbf879f4e0c6b76f0	-0.011534318689367024
25	0xbf9b331382baa5c7	-0.02656202779204422
26	0x3fa7d377dff3f460	0.04653524979401236
27	0x3fadef041e924f15	0.05846417306125155
28	0xbfacd09834f54df1	-0.05627895018065122
29	0xbfacf69739da7671	-0.0565688379403867
30	0xbfa68b8df07d904a	-0.04403346596407738
31	0xbf993c246146b9d2	-0.024643486439964786
32	0x3f87792a9bbec33e	0.011461575391736308
33	0x3f96b524c27fb54d	0.022175382968204805
34	0x3f9cfa49055051eb	0.028298512410474357
35	0x3f9eeb4f4c856b74	0.030194510503274555
36	0xbf69b960233faf14	-0.003140151757170426
37	0x3fa9b8e071f96511	0.05023862258230783
38	0xbf98adfc982d3270	-0.024101206577415046
39	0x3faa956fc4e8a14e	0.05192136076613228
40	0x3f960941839ab1ab	0.02151968351124515
41	0xbfb0232b2efb94d3	-0.06303663155593435
42	0x3f9dd0046c31615d	0.02911383543354994
43	0x3faa4fd47ddf5e0f	0.05139030491380591
44	0xbf99e591fde30d44	-0.02528980362036505
45	0xbf634ce726f6e990	-0.0023560061160569704
46	0x3fa54e954ecd8c11	0.041615167493340384
47	0x3fab8df1ab24b8ca	0.05381732191232087
48	0x3fa4287498b10995	0.03937115062628319
49	0xbf86db8b3fd7afa0	-0.011160934339350892
50	0x3f8d90aa36051110	0.014436082624009333
51	0x3f6c842df68e01a9	0.003480996867836168
52	0xbfb065ab45e7b2a2	-0.06405134636561141
53	0xbfab686aaeba9035	-0.053531011418528264
54	0xbf99218dc5c090d0	-0.024542060084187522
55	0xbf99e46f99d66e92	-0.02528547645998331
56	0x3f73838bb71ebd9d	0.004764123690548597
57	0xbf6ca1f09c541b0f	-0.003495187704746334
58	0xbf9627c77d73b023	-0.02163612082669898
59	0xbf99e54353308864	-0.025288631393899044
60	0x3fa616afa450103a	0.04314183121462674
61	0xbf848d07e39a91cb	-0.010034619935432773
62	0xbfa3e81a06d7f090	-0.038880170188322016
63	0x3fabd2f2d01234f1	0.05434378423624676
64	0x3f5ac1829db7dc2d	0.001633050493976783
65	0xbf761bf888bc8e76	-0.005397768818315654
66	0x3fa5bbf42389ec21	0.04244959768126245
67	0x3fa17af29bbf56d3	0.03414114142621618
68	0xbf63ce46885514d4	-0.002417695769198683
69	0x3fa00edfc2467776	0.03136348005794691
70	0xbf805745dddb1233	-0.007978959877967906
71	0xbfafd9ba836f07dd	-0.062208012146143445
72	0xbfaad58c6ef3e820	-0.05241049627689187
73	0x3fa8752376b77f79	0.047768696061893
74	0xbf996c8c9fbd316d	-0.024828145265290247
75	0xbfaee8653692dd23	-0.06036678591902447
76	0xbf6ff4738bb01216	-0.0039007431746560612
77	0x3fa1ce414b723af1	0.034776726207487736
78	0x3fa8b137157fc641	0.048227044462589415
79	0x3fa343674f952931	0.03762362333744063
80	0xbfa4b7d072213b0e	-0.040464891368733644
81	0xbf9e8083eb710a2a	-0.02978712200661896
82	0xbf9e63dde8699d43	-0.02967783671411196
83	0xbf72102055d8b50d	-0.004409910497583225
84	0xbf641f95f2e75de3	-0.0024564675033891133
85	0x3fac16c056e4d5b5	0.05486107884136563
86	0x3f9b0bed39f6c5b6	0.026412684119071016
87	0x3fab9de876c2663d	0.05393911790561077
88	0xbfaee366cac44584	-0.06032868600062627
89	0x3fa19e7e18fae5b8	0.034412327336620974
90	0xbfa5b2908fd8ad07	-0.042377965506910135
91	0x3f9c775a16f575a4	0.027799041415496398
92	0xbf98017c810acd2a	-0.02344316995249788
93	0x3f99d9d896b27bcd	0.025245079229190105
94	0xbfaec0dc29a9ab0e	-0.060065155111109644
95	0xbfa9668355d27ecd	-0.04961023733744483
96	0xbfa66062126a521a	-0.04370409464641885
97	0xbfa16d59f0b8bb11	-0.0340374094342818
98	0x3f5ebebd81a3f508	0.0018765307091251366
99	0xbfad01913858a2ce	-0.056652582290842454
100	0xbfac45bcef8f3b19	-0.0552195589476609
101	0xbf80ff6937259d12	-0.008299657817316706
102	0xbfad07d29364b54e	-0.05670030640826927
103	0x3f8a7f10b2b9b214	0.012937670187249707
104	0xbf937264bd3d63e8	-0.018991064119607076
105	0x3f967bdd4b13c603	0.021956880290366253
106	0xbf53a431201ef3af	-0.001198814367383987
107	0xbfa5ab7788a9ec4b	-0.0423238138509637
108	0x3f93e6abd0d9c725	0.01943462812636833
109	0xbf95b15642ed5538	-0.021184299311547167
110	0xbfaf02cfb82d3695	-0.06056832431077656
111	0xbf20ca4ee1ebd7a2	-0.00012809956475451101
112	0xbfa93550eb6e29f8	-0.049234894503644655
113	0xbfaaef33f56094c6	-0.05260622377708439
114	0xbface824cb414658	-0.05645861607684982
115	0xbfa4ec50c123c228	-0.040865443779584176
116	0x3f9254c6fca9cc69	0.017901524707167136
117	0x3f936ecb68b90862	0.01897733523060941
118	0xbf91e8c070598129	-0.017489439828183215
119	0x3f92cb0685c829dd	0.018352605739019857
120	0xbf8248867b291e47	-0.00892739356380824
121	0xbf9b86ae03aeaf2c	-0.026880949949983066
122	0xbfafa72bf86cd60c	-0.06182229430707417
123	0xbf9d3c20f71d45cb	-0.028549685557043774
124	0x3fa4e09e8cedd8db	0.040776209548242646
125	0xbfaf4425235f81f8	-0.06106678063202148
126	0x3f908c5271f578ae	0.016160286145684814
127	0x3f95b9583ee2b663	0.021214846456749103
128	0xbf91f2edf1aee778	-0.017528264881299077
129	0x3fa6ff2709a92d90	0.044915409020713004
130	0xbf5ef78d39b9c8e0	-0.0018900756030260576
131	0x3fa4d742bcba1a4c	0.04070480874820656
132	0x3fa2f7b31ab23b55	0.03704604817277494
133	0x3f97956c09cf879a	0.023030937289042798
134	0xbfaf82c8f4bddfd3	-0.061544685245223406
135	0xbfa9e275b87fcb5e	-0.05055587651431524
136	0xbf7d5268f293339b	-0.007158670379067279
137	0xbfb061d7c98ef732	-0.06399296446667505
138	0x3f87fab6017e9d34	0.01170866195736995
139	0xbf9913c7b64425e3	-0.024489517688413797
140	0xbf8b86cac987469f	-0.01344068934932646
141	0x3fa2c124cee81155	0.03662982011522568
142	0xbfa5ff347607587a	-0.04296268406658128
143	0xbf6975a9e438f658	-0.003107864207577287
144	0xbfa1001bf030439e	-0.03320395762432969
145	0xbfa87e151c3c0d97	-0.047836932846645634
146	0xbf96275fc4d3bd40	-0.021634575260518263
147	0x3fa16aaccc3a695a	0.034016990595051325
148	0xbf82cfc4a2679e5f	-0.009185348707389794
149	0xbf957245be115442	-0.020943727231799388
150	0xbf8f5342fcb21949	-0.015295527779255596
151	0x3fa68837ab60b7c4	0.044008006734983535
152	0x3f99be8c8b51ec16	0.02514094925252771
153	0xbfa691ab295a363f	-0.04408011321821136
154	0xbf994382d89bb30d	-0.02467159697600878
155	0x3f8a5affb1e1d1e1	0.012868878952056075
156	0x3f963704af87a046	0.021694253171432608
157	0xbf9e4f507692b629	-0.029599435078742218
158	0xbfa60dd586e1cffa	-0.04307429572591555
159	0xbfa0e72a210dc176	-0.033013645682220025
160	0x3fa1dfc6f46df129	0.03491040929563589
161	0xbf93602b3ebfd6fb	-0.018921542839925625
162	0x3fa28c85f69f5174	0.03622835765387125
163	0xbf9d4b00fb411628	-0.028606429419843732
164	0xbf890a42cbd23798	-0.01222660240662403
165	0x3f90667a0fc4df99	0.016015917980638148
166	0x3f999be2214f82c1	0.025008710177533148
167	0xbfa13d65acd37741	-0.03367154822056629
168	0x3f79287aadc60127	0.00614211961180925
169	0xbf56176f1c1cdfe3	-0.001348360543898857
170	0x3f99001aaca7be4f	0.02441445998004915
171	0xbfae20037943d9bd	-0.05883799414907596
172	0x3fa33e71a59550c7	0.037585784399796256
173	0xbfa7556edbe43031	-0.04557367738934238
174	0x3faac2edf8502af3	0.05226844459692428
175	0xbf92ce004b06e03b	-0.018363957003856717
176	0xbfabfe7b1667bb51	-0.054675909504899985
177	0x3f8421088dee0cc0	0.009828631240230812
178	0xbfaa8fb334f3aab0	-0.05187759419807969
179	0xbfa7a6905e791ffa	-0.04619265702473281
180	0x3f7be7b157f15026	0.006812756298206357
181	0xbfa24b48cdcc44f6	-0.0357306243150876
182	0x3f89a4c440407815	0.012521298609552681
183	0x3f7b2afd03283a01	0.006632793740676935
184	0x3fa70b31d71dc805	0.04500728369647792
185	0x3f7212359c871f89	0.00441189710586077
186	0x3f9a3ced716ffb24	0.02562304501406766
187	0xbfab8437ea1739d1	-0.05374312145760352
188	0xbfa8e575d23b33ce	-0.04862564269351531
189	0xbf9d2a4a2a913f96	-0.02848163494883201
190	0xbf258d59ce40a0e3	-0.00016442986736931513
191	0x3f705323f7f4f22b	0.003985538961668793
192	0xbfa76866a1afd0a6	-0.04571839069095178
193	0x3f822255d5f804db	0.008854551880178743
194	0x3f96c366772107a1	0.022229767819460403
195	0x3f8850594c072ba1	0.011872003205004424
196	0xbfa95bbb2d86f906	-0.04952797823669823
197	0xbfa0e7a337df31e3	-0.03301725441960792
198	0x3f9eb016dbbb78b3	0.029968602334400084
199	0x3f7bfc416a6fff7c	0.006832366495473138
200	0x3f85f016eedd39b8	0.010711840786510204
201	0x3fa5e14ed8ad8b39	0.042734588575305606
202	0x3fab1bb1d487b322	0.052945668405163696
203	0x3f90afe684f0b7fd	0.016296007026703297
204	0x3fa024dd801a23cb	0.03153125942942089
205	0x3f97f403036a7f07	0.023391768535133497
206	0xbf91c44f66fc08bb	-0.017350426350284148
207	0x3f974e48186f5e5a	0.022759558192630848
208	0xbfa238df5df4a929	-0.03559015294952623
209	0x3f819aa57352e40d	0.008595745641615716
210	0x3f8c0866d08f0da8	0.013687899818143404
211	0xbf9a942d8708e64f	-0.02595587860762399
212	0xbf9b8da49b076df1	-0.02690751262876562
213	0xbfb10f9503b4cdc5	-0.06664401379094105
214	0xbf9f1d68fc81be12	-0.030385628139297856
215	0xbf9387299f675632	-0.019070291856982453
216	0x3fa72ae53d51625b	0.045249141440483164
217	0x3f87a3804e91d5d7	0.011542322538143175
218	0xbf9912ad613ab965	-0.02448531061116323
219	0xbfa6eee93bf07e91	-0.04479149681742201
220	0xbf708ccbf44d5394	-0.00404052419329028
221	0xbf8999e182582122	-0.012500535764971735
222	0xbf97268d6b38f443	-0.022608003300991674
223	0x3f9a9afd4db5ddbb	0.025981862896029755
224	0x3f9e60ed921feb9e	0.02966662601827929
225	0x3f8bb56b515374ec	0.013529623431561132
226	0xbf91162e3dd38fe2	-0.016686174892029622
227	0xbfa5dc7886397cdd	-0.04269768370135705
228	0xbf878cf8997448f8	-0.011499349768687925
229	0xbf93b6225e015ffa	-0.019249474513657085
230	0x3f9f3d17dcd8be41	0.030506489614877678
231	0x3fa5a8f99db20b9f	0.042304802417695735
232	0xbfafeb50e9c9fb0e	-0.06234219411725493
233	0xbf9227289df09a1e	-0.017727503433116458
234	0x3fa0bf9949ebf7e3	0.032711782716418523
235	0x3f8180c8c9442ffb	0.00854641784874132
236	0xbf90d35914eef149	-0.016431228544875585
237	0x3fa8df30cea7082d	0.048577809549456986
238	0x3fabd4dc7af7cdaa	0.054358377466907484
239	0xbfa0e250d31cc925	-0.03297665192657665
240	0xbf86461bf02a6d09	-0.01087591005971557
241	0xbfa4529e2c3beb9b	-0.03969282426802253
242	0xbf92bef639cd61d2	-0.018306586530657594
243	0x3f89c576b9b961e8	0.012583663504458678
244	0xbfa8538feaa66b66	-0.047512528795059336
245	0x3fa21ba770c46e2c	0.035367233768024725
246	0xbfa2c1c9ae4cbe9f	-0.036634733702496584
247	0xbfa5c2cf43ec2ce2	-0.04250190452702342
248	0x3f9959a5090bd97b	0.02475602977480083
249	0x3f7657c518c885cb	0.005454797658360498
250	0x3f86eed89b4e2e62	0.011197750320000203
251	0xbfa0448104c45f42	-0.03177264388267399
252	0x3fac680639f24426	0.055481142591027585
253	0xbfa21ae7a66931c9	-0.03536151796706439
254	0x3f7eaf1ce44a376b	0.007491219385554841
255	0xbf6746eb3a59add8	-0.0028414339347386623

network.2.bias f8 [256]
0	0x3f9348454b4726e2	0.01883037826500001
1	0x3fb686277de0b602	0.08798453162372513
2	0xbf902e8e7e4492d5	-0.015802599388865374
3	0x3fae59a6568ee4e8	0.05927772337549603
4	0x3fbf78d7cceb6108	0.122937667397654
5	0x3fa93a849e414570	0.04927458221267045
6	0x3fb3351cbd0151b6	0.07502917875655765
7	0x3fc0b182901d0c6d	0.13041717564383096
8	0x3fb36743f72cec19	0.07579445633466299
9	0x3fc3abd0f59f8649	0.15368091576879042
10	0xbf97c47c98d4c14d	-0.0232104748039899
11	0x3fc6b6cbca9cbe39	0.1774534930532228
12	0x3fbe5b560634605c	0.11858117724875811
13	0x3f9aac9ef896c8a5	0.026049121782940294
14	0x3fa56a519f70df60	0.04182677336979057
15	0x3f9b72a51511efc2	0.026804522906317414
16	0x3fc3046d97bed411	0.14857263478703023
17	0x3fb14c7d2eb9f4f0	0.06757337942868324
18	0x3fb74357deabc195	0.09087132631589719
19	0xbfb0b236114868bc	-0.06521928712791952
20	0x3fc29ee504f7aac0	0.1454740785842059
21	0x3fb058683b198b6a	0.06384898608079728
22	0x3fb227d6e9b258c0	0.07092040257916477
23	0x3fc8f809819aa4e1	0.19506949261020792
24	0xbfb7a2735dbabb81	-0.09232255018535619
25	0x3faba97c6c45c220	0.054027450768334484
26	0xbfa51bac3aa0b2ba	-0.04122675147696016
27	0x3fb8a6991e0b49c9	0.09629208549021152
28	0x3fc41cb8bb9ccd20	0.15712651406065792
29	0x3facb0944c658683	0.05603469307494626
30	0x3faaaf106a9fb10b	0.05211688329277039
31	0xbfacfff342152ec8	-0.056640245262852995
32	0x3faff1954ac61846	0.062390008332883926
33	0xbfa292e07b434e20	-0.03627683167146878
34	0x3fb3cc7141bc6de4	0.07733829359897687
35	0x3fa1704ff3ad20ea	0.03405999993862159
36	0xbfa4deb626a51847	-0.04076165410747073
37	0xbf6a319394e522d9	-0.0031974680379430573
38	0xbf9e2735ea440b2b	-0.029446451590966632
39	0x3fb84dcd3b7a19d4	0.09493715955804954
40	0x3fb93ee33ebd7148	0.09861583978403587
41	0x3fb4aa692477b44f	0.08072526111910004
42	0x3fa3afc4e71f8b1c	0.038450387204440356
43	0x3fb7f543ca835d2f	0.09358619398277733
44	0xbfb76c46cd8526e5	-0.0914959193952672
45	0x3fc60b0e336553aa	0.17221238622246676
46	0x3fc4c418660151a2	0.16223435383529955
47	0x3f96ff011246b498	0.022457138767710022
48	0x3fb2c596d09d45d9	0.0733274707138415
49	0x3fbf235813433140	0.12163305731082108
50	0x3fb8085038ab7b8d	0.09387685187856061
51	0x3fb201f8f93f6158	0.07034259877344107
52	0xbfb1544a9e18ed98	-0.06769243583487705
53	0xbfa8303348a5c5cf	-0.047242739313229636
54	0x3fb884163546eabc	0.09576548386295775
55	0x3fc45770ae89f21a	0.15891846201329046
56	0x3fbca179b2158893	0.11183891866451949
57	0x3fbdc4a5c50dea73	0.1162818533029311
58	0x3fc00640efb047d1	0.12519084647698134
59	0x3fc76a9d2482b103	0.18294109614124218
60	0x3f9f49f634416ae9	0.030555579127716923
61	0x3fc07c840f74aec1	0.12879992251088448
62	0xbfaba612b274e93c	-0.054001411709082764
63	0x3fbe50197c6a4aa4	0.11840972220879081
64	0x3fa83334a24a8543	0.04726566773502807
65	0xbfa7480729bea302	-0.045471404882226465
66	0xbf87bbb26044e0cd	-0.01158847194948045
67	0xbfa1cd22547faac1	-0.0347681739948107
68	0x3fc1d834f8dcd479	0.13941061164374327
69	0x3fc041dc2d660d0c	0.12700988976221372
70	0x3fb5bd3e9c774c0a	0.084918893050869
71	0x3fbaadfa100298a6	0.10421717539665795
72	0x3fbecf52cc0d3725	0.12035100442627973
73	0x3fa69c7b0d8c4294	0.044162602809710766
74	0xbfae65445852162e	-0.059366355687455616
75	0x3face9de1764aa55	0.056471767764681026
76	0x3fb636e92d97b08f	0.08677537310694759
77	0x3fa5c0d6846d472a	0.04248686186350732
78	0xbfb841f3ac8dd55a	-0.09475634539361036
79	0x3fb92ac64c7d09b1	0.09830893866914071
80	0x3fc4ba0f13601b20	0.16192806669297344
81	0xbfb74a9f6b47a550	-0.09098240250718459
82	0x3fb1640e7c6f95ff	0.06793299234376347
83	0x3fc35ed47f0a7fcf	0.15133148387121628
84	0x3f82a776b798e1af	0.009108474233571721
85	0x3fc1044cf986041f	0.13294374641194026
86	0x3fb34333e65fe42b	0.0752441823423317
87	0x3fbe8487726c5d66	0.1192097334245453
88	0xbfa3213c01213565	-0.037362933290391344
89	0x3fa877bba4070d76	0.04778849007882517
90	0xbf6afefdb0e58ae2	-0.00329541729949888
91	0x3fc1d235622e8ab3	0.13922755521806138
92	0x3fc4341391371ce4	0.15783924666013782
93	0x3f823a1d7260bc7d	0.00889990811637475
94	0x3fbb2c8d569ced02	0.10614856113982188
95	0x3fc5165a2d6ca7e1	0.1647446367072112
96	0xbfa26b4f3c2c35c3	-0.03597495660333607
97	0x3fb60fc050d257bc	0.08617784474549145
98	0xbfa7c78f8abab3db	-0.0464444023940371
99	0xbf9e3fa3874e7794	-0.02953963769288455
100	0x3fb034b8b7fc9ea4	0.06330446712365273
101	0x3fb4ed3005712f8e	0.08174419529785679
102	0xbfa35e7079a2c9e4	-0.037829890106326564
103	0x3fb3f0ecffa9c0b0	0.07789498559737029
104	0x3fb977bef0bf4231	0.09948342683424795
105	0x3fb69b0735e4dad0	0.08830304208536721
106	0xbf9d1163b75e2972	-0.0283866482418857
107	0x3faf5b214d8558e5	0.06124214240360163
108	0x3fc3617b8f7684c7	0.15141243462588802
109	0x3fb8c3994ded5e8c	0.09673460152168384
110	0x3fc15e3ef41ab3fc	0.13568865698962884
111	0xbfa01b66b06bcf96	-0.03145905402735065
112	0x3fc7484462efc3be	0.1818929179276249
113	0x3fb72b8cb3828435	0.09050826437534527
114	0x3fb6e60353b2d677	0.08944721978590474
115	0x3fbf0d87a661c848	0.12130019962367655
116	0xbfb0f46b7cd8f36d	-0.06622955129655646
117	0x3fc716b9886c3996	0.180381003964112
118	0x3fb6c384f5a47b77	0.08892088887340131
119	0x3fbdd161a65b267d	0.11647615729739332
120	0x3fa15d7a168b468e	0.03391629719920984
121	0x3fc43ad8b9a20f16	0.1580458551799146
122	0xbfa23b5c4435f9f1	-0.0356091340317909
123	0x3f995775269341ad	0.024747686843342432
124	0x3fbbb6b1cad39c59	0.1082564468557491
125	0x3fc1d1aa4d233e71	0.13921097532737606
126	0x3fc05de4cd375e14	0.12786541004491936
127	0xbfa6980027269720	-0.0441284225264964
128	0x3fc211efc3925328	0.14117238091844198
129	0x3fb15e22fc2b61c0	0.06784266144257511
130	0x3fb3e50b2173b985	0.07771367613506726
131	0x3f9bfc719edd21e9	0.02733018428924253
132	0x3f9edadee1d49a1a	0.03013180020675508
133	0x3fa88ee482049787	0.04796518408902189
134	0x3f9061b1ab6a309c	0.015997673117951736
135	0xbfab575648842a5e	-0.05340070376594917
136	0x3fc19d16b8a2c059	0.13760646834771498
137	0x3fbf33af4f227adb	0.12188239748000333
138	0x3f81136909025f0f	0.008337803447190177
139	0x3fbec45d26f1ea85	0.12018377495579997
140	0x3fc0b3ca9967ca42	0.13048679819583425
141	0xbfa28d072e2ed4a7	-0.03623220862156389
142	0x3fafaca43b9f82e0	0.06186402538128788
143	0x3fc65588b959595e	0.1744852929138671
144	0x3fc160fc6914944d	0.1357722771728355
145	0x3fa75c555d2d2f44	0.045626323341450475
146	0xbfad414223e16407	-0.05713850677484094
147	0x3f91b14174f3b3d0	0.0172777392989934
148	0x3fc66cdd1998bb88	0.17519725560984178
149	0x3fbf60c33b66c680	0.12257023048621285
150	0xbf67fee4ff109865	-0.0029291603646184766
151	0xbf94ad92672541b4	-0.020193374200347683
152	0xbfa18009ffd19ba4	-0.034179985502127225
153	0x3fb082d50a42430a	0.06449634075603342
154	0x3fc7b860d959bf4e	0.18531427967854558
155	0x3f8bdcfeb809f7dd	0.013605108252928428
156	0x3fb59babbee4ee6c	0.08440659914497822
157	0x3fb29fdf8776ed30	0.07275197083702234
158	0x3fbfa6babcc2eddc	0.12363783939775125
159	0x3fba57e909ddaaae	0.10290390482775066
160	0x3fc5a28021b33abf	0.1690216221381515
161	0x3fc499295b12a3b3	0.1609241194430787
162	0x3fbe71e8b1f41124	0.11892561287465192
163	0x3fa5950c5493af7d	0.042152772259071526
164	0x3fbc8c8f0c598c54	0.11151975680836418
165	0x3fb425e521233ab6	0.0787032323744182
166	0x3fa6ed8eb5c9f2d2	0.044781169596694106
167	0x3fc03bda78eed487	0.12682658104828112
168	0x3fa8779ea4e184e3	0.047787625910822994
169	0x3fa3ca35a1eb5774	0.03865211106828684
170	0x3fb4926357366825	0.08035870436870647
171	0x3fc42552a172199a	0.15738900073138212
172	0x3fc1154aa4ec981d	0.1334622674268652
173	0x3fa78e159dcc61f9	0.04600589324235566
174	0x3fc757034b55451c	0.18234292200444535
175	0x3fc0f283f39020ea	0.1324009837410423
176	0x3faf80ef8c3d3c80	0.06153057658104277
177	0x3fc056af7c65e4e5	0.12764543127176534
178	0x3fb2b0812b1b5ef1	0.07300574591078736
179	0x3f90d3f6fc9ed60b	0.01643358151314626
180	0xbf810e092f9a5f50	-0.008327552571514879
181	0x3fc128afdc0eca98	0.13405416722305996
182	0xbfb18a39e7a75905	-0.06851541429145776
183	0x3fa0490a1d4280d3	0.03180724723029162
184	0x3f96bb2c2338c405	0.022198381089939562
185	0x3fc666a84b95debf	0.1750078553266032
186	0xbf819cb55ca10c6e	-0.008599678887668296
187	0xbf361966be509a7f	-0.00033720739731039196
188	0x3f44376e2fd743cc	0.0006169593831889474
189	0x3fa2627001ebf404	0.03590726874788433
190	0xbfb1107cf0cf44ab	-0.06665783766881599
191	0x3fb0e3f3f91b229d	0.06597828704537752
192	0x3fa4cea0b415cd6e	0.04063894460969207
193	0x3fb8af4f03ff8de1	0.09642499778379189
194	0x3fb07b3d34e8391b	0.06438047925641792
195	0x3fba13870255af8a	0.10186046416282415
196	0x3fc1382abe3dc1f3	0.13452657975314217
197	0x3fc10d864843887e	0.13322523621087962
198	0x3fb718c0d7c7028a	0.09022145526888373
199	0xbf46d99d7a5ca76e	-0.0006973284659796805
200	0x3f98af291847cfc7	0.02410568438240526
201	0x3fba43a004b390f1	0.10259437670498862
202	0x3fc3fc55ded3c5ee	0.15613816623913074
203	0x3fc13e96ae347df4	0.134722552357729
204	0x3fc529b91cda734a	0.1653357878575668
205	0x3fac5e0cd48091c3	0.055405045452320965
206	0xbf89f9420eebbf77	-0.01268245323214477
207	0x3fb1a42b6429028d	0.06891127772633805
208	0x3fb7159f7407135c	0.09017368872362169
209	0xbf977fa106cb9e0d	-0.022947803535229783
210	0x3fb2740c43231759	0.07208325041855569
211	0x3fb9649463d0ebae	0.09919097363392268
212	0x3fadb6ef9754473a	0.058036315176777056
213	0x3f705d27693d09f3	0.003995088529168178
214	0x3fc2d2c98cc716b4	0.14705771802817014
215	0x3fb44d01155888c3	0.0792999913324222
216	0x3fbb3a2a524d837c	0.10635628232331656
217	0xbf845bbab466c1ef	-0.009940584783948629
218	0xbfa8c1bceec017f8	-0.0483531037753408
219	0x3fa9cb9a46db9a7b	0.050381489896428065
220	0x3fb51a263d1b7c6a	0.08243025771979409
221	0x3fc5789ade101143	0.16774307101162308
222	0x3fb8e833a49d14e7	0.09729311722647403
223	0xbfaebf53ea02c740	-0.06005346519067567
224	0x3f93d28a7c10ad4e	0.01935783750756786
225	0x3fc2cf92a3e559c7	0.14695961954812573
226	0x3fb3b6aafe428987	0.07700604159848555
227	0xbfa075a4bdd75b93	-0.032147548841457006
228	0xbfa50bf7b1933863	-0.0411069301859335
229	0x3fa974d1bf599de9	0.049719385727083516
230	0x3fc24ba93943552e	0.14293399139448
231	0xbfa55ff3bce2798c	-0.041747681433878275
232	0x3fa05b843199efde	0.03194821458325213
233	0x3fb6b36a45dc8087	0.08867515760039356
234	0x3fc53f5bd47083ca	0.16599605439208026
235	0x3fb8a59ef348865f	0.09627717437299442
236	0x3fb08b9d1848d4ff	0.06463033526309302
237	0xbf7dedcb67245851	-0.007306856672832111
238	0x3fc4cb7e64c5316e	0.16246013565467926
239	0x3fc1cde8966089d8	0.1390963300955963
240	0x3fa255098fde7953	0.03580503350461819
241	0x3fb556edcf5c9439	0.08335768044033011
242	0x3f82492fa4eae751	0.008928653927217008
243	0x3fb77bc2c4831712	0.09173219010980585
244	0x3fa49efa94bfe048	0.0402754122332572
245	0xbf9b09db9d2bf231	-0.02640479227828702
246	0x3fb0751ac3d5cf75	0.06428687363751158
247	0xbfa5ca7dc7ec21d3	-0.042560511259640464
248	0xbfa225f1a8ee2199	-0.0354457396234153
249	0xbf93aeb5d42a4384	-0.01922115428402861
250	0x3fa3439684ee6a43	0.037625030257193014
251	0x3fade44ac0bce32a	0.05838235476261951
252	0x3fc0e0c8b01fd3d5	0.13185986137219055
253	0x3fbddcb60c61094a	0.11664903452132083
254	0x3fb31056c57742e7	0.07446806260055504
255	0x3fc323c890afb5d7	0.14952952446712572
